#map = affine_map<(d0, d1, d2, d3) -> (d3)>
#map1 = affine_map<(d0, d1, d2, d3) -> (d0, d1, d2, d3)>
#map2 = affine_map<(d0, d1) -> (d1)>
#map3 = affine_map<(d0, d1) -> (d0, d1)>
#map4 = affine_map<(d0, d1, d2, d3) -> (0, d1, d2, d3)>
module {
  util.func public @main(%arg0: tensor<1x64x64x3xi8> {ml_program.identifier = "input"}) -> (tensor<1x2xi8> {ml_program.identifier = "Reshape"}) {
    %cst = arith.constant dense<[41, 40]> : tensor<2xi8>
    %cst_0 = arith.constant dense<[1930854972, 1088423974]> : tensor<2xi32>
    %cst_1 = arith.constant dense<"…"> : tensor<160xi8>
    %cst_2 = arith.constant dense<"…"> : tensor<160xi32>
    %cst_3 = arith.constant dense<"…"> : tensor<384xi8>
    %cst_4 = arith.constant dense<"…"> : tensor<384xi32>
    %cst_5 = arith.constant dense<"…"> : tensor<384xi8>
    %cst_6 = arith.constant dense<"…"> : tensor<384xi32>
    %c49_i8 = arith.constant 49 : i8
    %c1104644408_i32 = arith.constant 1104644408 : i32
    %c1935178768_i32 = arith.constant 1935178768 : i32
    %c4_i32 = arith.constant 4 : i32
    %cst_7 = arith.constant dense<[39, 39, 40, 40, 39, 39, 39, 40, 39, 39, 39, 39, 39, 39, 39, 40, 39, 40, 39, 39, 39, 39, 39, 39, 39, 39, 39, 39, 39, 38, 40, 39, 39, 39, 39, 39, 39, 40, 39, 40, 39, 39, 39, 39, 39, 39, 40, 39, 39, 39, 39, 40, 39, 39, 39, 40, 39, 39, 40, 39, 39, 39, 40, 39, 39, 40, 39, 39, 40, 39, 39, 39, 39, 39, 39, 39, 39, 39, 39, 40, 39, 40, 39, 40, 40, 39, 39, 39, 39, 40, 40, 39, 39, 39, 39, 40]> : tensor<96xi8>
    %cst_8 = arith.constant dense<[1348780436, 1367962134, 1433442090, 1917182728, 1668251390, 1860171045, 1600428066, 1265384571, 1472567689, 1293328491, 1473753978, 1146795163, 1185869073, 1323938588, 1484973526, 2023902946, 1307369106, 1520229340, 1453153613, 1218064358, 1447100074, 1134607447, 1373475091, 1164118889, 1385646365, 1467975933, 1098793997, 1422819098, 1802855530, 1259655941, 1972501561, 1108942788, 1688501395, 1405907477, 1334401181, 1173337120, 1298996163, 2124256522, 1155468701, 2083864610, 1422246156, 1187903449, 1469806968, 1294324033, 1289220382, 1242939616, 1457581908, 1281712405, 1941165645, 1337913784, 1358338794, 1761198791, 1238309641, 1552163124, 1367545656, 1746724381, 1231000370, 1327456351, 1948866031, 1214142449, 1246063464, 1970252299, 1937484334, 1151989858, 1388275197, 1667475457, 1219429938, 1676740303, 1793047390, 1468334864, 1204283321, 1174141652, 1319333452, 1239867367, 1639632639, 1304369623, 1390065214, 1454163586, 1392948464, 1738270801, 1450620897, 1758465533, 1210234708, 1458911454, 2110301967, 1106903339, 1311948179, 1283883130, 1548360946, 1924725689, 1961078235, 1230938974, 1188319140, 1097959204, 1338875567, 1350164645]> : tensor<96xi32>
    %cst_9 = arith.constant dense<"…"> : tensor<480xi8>
    %cst_10 = arith.constant dense<"…"> : tensor<480xi32>
    %cst_11 = arith.constant dense<"…"> : tensor<480xi8>
    %cst_12 = arith.constant dense<"…"> : tensor<480xi32>
    %cst_13 = arith.constant dense<[40, 40, 40, 40, 40, 40, 40, 40, 40, 40, 40, 40, 40, 40, 40, 40, 40, 40, 40, 40, 40, 40, 40, 40, 40, 40, 40, 40, 40, 40, 40, 40, 40, 40, 40, 40, 40, 40, 40, 40, 41, 40, 40, 40, 40, 40, 40, 40, 40, 40, 40, 40, 40, 40, 40, 40, 40, 40, 40, 40, 40, 40, 40, 40, 40, 40, 40, 41, 40, 40, 40, 40, 40, 40, 40, 40, 40, 41, 40, 40, 40, 40, 40, 40, 40, 40, 40, 40, 40, 40, 40, 40, 40, 40, 40, 40]> : tensor<96xi8>
    %cst_14 = arith.constant dense<[1314631074, 1118062242, 1249526701, 1263412799, 1780028368, 1936542188, 1398666628, 1397614821, 1144411366, 1363209924, 1340259490, 1516483307, 1389084155, 1694998979, 1122737600, 1381887660, 1563391128, 1240863622, 1277930169, 1086639851, 1448833899, 1342970276, 2090162871, 1539215774, 1150886350, 1672567621, 1113765981, 1918249240, 1446961239, 1180200642, 1761622688, 1232099057, 1311446466, 1767087370, 1374497165, 1159375512, 1705680521, 1255409107, 1878381936, 1677159502, 1969764339, 1246343031, 1156655354, 1258049469, 1770186424, 1677636939, 1362894757, 1477470060, 1083021052, 1356557942, 1589812283, 1139301749, 1634132226, 1513678801, 1341213025, 1506307853, 1569863970, 1697297932, 1442740891, 1111949218, 1337660901, 1529620046, 1403021665, 1554136943, 1395302882, 1143541911, 1790580041, 2079043121, 1282175151, 1233928338, 1537079626, 1532622301, 1416052768, 1106463582, 1663301252, 2023977371, 1720104974, 2116840818, 1191661132, 1672384599, 1777913508, 2084816678, 1484244949, 2094867885, 1504075174, 2079667430, 1492166435, 1184357796, 1086250176, 1153007770, 1433143556, 1221244802, 1541657047, 1637755041, 1199639653, 1097145667]> : tensor<96xi32>
    %cst_15 = arith.constant dense<"…"> : tensor<240xi8>
    %cst_16 = arith.constant dense<"…"> : tensor<240xi32>
    %cst_17 = arith.constant dense<"…"> : tensor<240xi8>
    %cst_18 = arith.constant dense<"…"> : tensor<240xi32>
    %c2140498155_i32 = arith.constant 2140498155 : i32
    %c1608900243_i32 = arith.constant 1608900243 : i32
    %cst_19 = arith.constant dense<[40, 39, 40, 40, 39, 40, 40, 39, 40, 40, 39, 40, 40, 39, 40, 40, 39, 40, 39, 39, 40, 40, 39, 39, 40, 39, 39, 40, 39, 40, 39, 39, 40, 40, 40, 39, 40, 40, 39, 39, 40, 40, 39, 41, 41, 40, 40, 40]> : tensor<48xi8>
    %cst_20 = arith.constant dense<[1427264026, 1305610605, 1729903493, 1958027297, 2066467077, 1281356549, 1482663768, 1637790892, 1545520861, 1567780749, 1117581911, 1928857421, 2060011903, 1528155920, 1466251209, 1996338231, 1100191570, 2096550858, 1193754120, 1691657820, 1339240859, 1604119269, 1328934410, 1120245035, 1696873162, 1728900688, 1756043955, 1349768491, 1194123178, 1699081094, 1112602213, 1228787924, 2078087421, 1107066728, 1870550486, 1920839757, 1242082168, 1280246359, 1111475173, 1179171131, 1413982860, 1382868485, 1532424161, 1992018687, 2009179672, 1691091093, 1305964825, 1395548722]> : tensor<48xi32>
    %cst_21 = arith.constant dense<"…"> : tensor<192xi8>
    %cst_22 = arith.constant dense<"…"> : tensor<192xi32>
    %cst_23 = arith.constant dense<"…"> : tensor<192xi8>
    %cst_24 = arith.constant dense<"…"> : tensor<192xi32>
    %cst_25 = arith.constant dense<[39, 39, 40, 39, 39, 39, 39, 39, 39, 39, 39, 39, 39, 39, 39, 39, 40, 39, 39, 39, 40, 39, 39, 39, 40, 39, 39, 39, 39, 40, 39, 39, 40, 40, 39, 40, 40, 39, 39, 40, 39, 39, 39, 39, 39, 39, 39, 39]> : tensor<48xi8>
    %cst_26 = arith.constant dense<[1123860580, 1627720649, 1903663294, 1232523218, 1401592830, 1373006219, 1137616482, 1443023865, 1091777245, 1449449645, 1184274828, 1234872667, 1254235926, 1153578956, 1082502493, 1142373368, 1806934699, 1224375496, 1263635370, 1374759728, 1977489770, 1276851604, 1152972447, 1291366088, 1922886284, 1229871955, 1481618349, 1100188144, 1076531011, 2058246833, 1165922416, 1340813084, 1737063773, 2107274529, 1209334932, 2122791214, 2086941322, 1164648048, 1184595170, 1904444247, 1262050816, 1336054345, 1152787022, 1379233536, 1278944258, 1275472514, 1281878530, 1251472942]> : tensor<48xi32>
    %cst_27 = arith.constant dense<"…"> : tensor<120xi8>
    %cst_28 = arith.constant dense<"…"> : tensor<120xi32>
    %cst_29 = arith.constant dense<"…"> : tensor<120xi8>
    %cst_30 = arith.constant dense<"…"> : tensor<120xi32>
    %c2136511470_i32 = arith.constant 2136511470 : i32
    %c1391170981_i32 = arith.constant 1391170981 : i32
    %c25_i32 = arith.constant 25 : i32
    %cst_31 = arith.constant dense<[38, 40, 40, 40, 41, 40, 39, 39, 38, 40, 39, 40, 40, 39, 40, 38, 40, 40, 39, 40, 39, 39, 40, 40, 39, 39, 38, 38, 39, 40, 39, 39, 40, 39, 41, 39, 38, 39, 39, 41]> : tensor<40xi8>
    %cst_32 = arith.constant dense<[1476576914, 1672018455, 1684587382, 1656406316, 1456967732, 2019821068, 1107157859, 1783079108, 1429621236, 1578097844, 1194161460, 1254924813, 1414765658, 1203566629, 1530835531, 1262156553, 1590381856, 1867794903, 1273795553, 1091512177, 1287740223, 1112493503, 2100772816, 1470127567, 1259592313, 1261703670, 1209260828, 1186903117, 1389055659, 1541170242, 1357410368, 1765458038, 1890169449, 1260497823, 2095589203, 1941099424, 1107080622, 1245535579, 1137591776, 1769848976]> : tensor<40xi32>
    %cst_33 = arith.constant dense<"…"> : tensor<120xi8>
    %cst_34 = arith.constant dense<"…"> : tensor<120xi32>
    %cst_35 = arith.constant dense<"…"> : tensor<120xi8>
    %cst_36 = arith.constant dense<"…"> : tensor<120xi32>
    %c1942687389_i32 = arith.constant 1942687389 : i32
    %c1825212155_i32 = arith.constant 1825212155 : i32
    %c-8_i32 = arith.constant -8 : i32
    %cst_37 = arith.constant dense<[39, 41, 41, 39, 40, 39, 41, 39, 39, 40, 40, 40, 40, 39, 42, 39, 41, 41, 40, 41, 40, 40, 40, 40, 41, 39, 39, 39, 40, 40, 39, 38, 40, 39, 40, 39, 38, 41, 40, 40]> : tensor<40xi8>
    %cst_38 = arith.constant dense<[1758418868, 1323067868, 2113881826, 1280770878, 1205373507, 1164670236, 1235255087, 1103912997, 1987210633, 1467716117, 1180888769, 1383939768, 1343254016, 1128062143, 2063322828, 1740218678, 1931464919, 1432428989, 1163674372, 1970988953, 1220557467, 1117985277, 2102777624, 2120069966, 1754813910, 1253060624, 1913322007, 2058224861, 1552341148, 1156257479, 1268461423, 1162025684, 1286963949, 1609559939, 1356003234, 1696570931, 1204565529, 1953789137, 1895804329, 1251848341]> : tensor<40xi32>
    %cst_39 = arith.constant dense<"…"> : tensor<160xi8>
    %cst_40 = arith.constant dense<"…"> : tensor<160xi32>
    %cst_41 = arith.constant dense<"…"> : tensor<160xi8>
    %cst_42 = arith.constant dense<"…"> : tensor<160xi32>
    %cst_43 = arith.constant dense<[40, 39, 39, 39, 39, 39, 39, 39, 39, 39, 38, 39, 39, 39, 39, 39, 39, 40, 40, 39, 39, 39, 39, 39, 39, 39, 40, 40, 39, 39, 40, 38, 40, 39, 40, 40, 39, 39, 39, 40]> : tensor<40xi8>
    %cst_44 = arith.constant dense<[1958948083, 1508806903, 1129768078, 1523262878, 1117905683, 1325259004, 1166640929, 1460278138, 1132612881, 1535724739, 1140858980, 1331291109, 1572844267, 1316264738, 1327833323, 1805141649, 1121945350, 2038141857, 1753887592, 1567988604, 1477193228, 1128554551, 1356308623, 1830406199, 1264350802, 1424285166, 1389640903, 1991548108, 1219485348, 1550256201, 2083853215, 1205372951, 2006827616, 1533017392, 2074060300, 1831902292, 1665459575, 1086208626, 1570214919, 1982021968]> : tensor<40xi32>
    %cst_45 = arith.constant dense<"…"> : tensor<120xi8>
    %cst_46 = arith.constant dense<"…"> : tensor<120xi32>
    %cst_47 = arith.constant dense<"…"> : tensor<120xi8>
    %cst_48 = arith.constant dense<"…"> : tensor<120xi32>
    %c1980469084_i32 = arith.constant 1980469084 : i32
    %c33_i8 = arith.constant 33 : i8
    %c1765608801_i32 = arith.constant 1765608801 : i32
    %c-6_i32 = arith.constant -6 : i32
    %cst_49 = arith.constant dense<[39, 39, 39, 39, 39, 39, 40, 40, 40, 38, 40, 40, 38, 40, 38, 40, 38, 39, 40, 40, 40, 40, 40, 39]> : tensor<24xi8>
    %cst_50 = arith.constant dense<[1453242035, 1167042772, 1233904679, 1624836188, 1825725873, 1329377165, 1681701552, 1849529603, 1932330832, 1253496498, 2143370169, 1675978163, 1907094896, 2085299812, 1231638256, 2032553963, 1123852431, 1273625593, 1707620449, 2017147940, 1961576122, 1998834421, 1945868916, 1191489165]> : tensor<24xi32>
    %cst_51 = arith.constant dense<[39, 38, 38, 38, 38, 38, 39, 38, 37, 39, 38, 38, 38, 38, 38, 37, 37, 38, 38, 38, 39, 38, 38, 38, 39, 37, 37, 37, 38, 38, 39, 39, 39, 38, 38, 38, 39, 39, 38, 38, 39, 38, 39, 38, 39, 38, 38, 38, 38, 38, 38, 38, 38, 39, 38, 38, 38, 37, 38, 39, 38, 38, 39, 37, 38, 38, 38, 38, 38, 38, 38, 38, 38, 38, 39, 38, 37, 38, 37, 38, 37, 38, 37, 38, 38, 36, 38, 38, 37, 38, 36, 38, 38, 38, 37, 38]> : tensor<96xi8>
    %cst_52 = arith.constant dense<[1834337162, 2139704729, 1295051422, 1584794985, 1853725495, 1997134558, 1817885793, 1345762979, 1163736745, 1738195885, 1147432337, 1167784138, 1665366207, 1706755698, 1363983130, 1866633031, 1084067767, 1970456754, 1588096944, 1851564968, 1653938794, 1331621560, 2064821973, 1456892403, 1692518134, 1176264624, 1550147977, 1226587682, 1366366840, 1448359871, 2051900895, 2118967563, 2064768025, 1636282867, 1453159525, 1117756008, 2115202338, 1847666214, 1237990694, 1246070705, 2132436412, 1304384457, 1610066538, 1788431751, 1938371756, 1761672912, 1525384349, 1704022328, 1815944755, 1286280598, 1794150327, 1467670974, 2025219957, 1398819742, 1233627331, 1355136307, 1359718263, 1506888074, 1697992037, 1668466585, 1478042691, 1378846814, 1855299861, 2104106565, 1122672290, 1174476702, 1139689450, 1636120237, 1897919542, 1599301286, 1215684200, 1569610966, 1454301628, 1257702497, 1823414764, 1475299920, 1778367610, 1602525344, 1131298057, 1217440446, 1500534313, 1767614334, 1215116058, 1082027002, 1601990444, 1246055483, 1561073621, 1280554300, 1477375718, 1669373866, 1552234073, 1075806098, 1226489410, 1407086783, 1313471140, 2104108132]> : tensor<96xi32>
    %cst_53 = arith.constant dense<[37, 39, 38, 38, 38, 38, 38, 39, 38, 38, 38, 38, 38, 38, 38, 38, 38, 38, 38, 38, 37, 38, 38, 38, 37, 40, 38, 38, 38, 38, 38, 37, 38, 38, 38, 38, 38, 38, 39, 38, 37, 38, 38, 38, 37, 39, 38, 38, 37, 38, 37, 38, 39, 38, 38, 37, 38, 38, 39, 38, 38, 39, 38, 38, 38, 39, 38, 39, 39, 38, 38, 38, 38, 38, 38, 39, 39, 38, 39, 38, 38, 38, 38, 38, 38, 39, 39, 39, 38, 39, 39, 38, 39, 39, 38, 39]> : tensor<96xi8>
    %cst_54 = arith.constant dense<[1782690171, 1969087163, 1937779173, 1242647672, 1449549536, 1163736976, 1477078872, 1832215813, 1402779063, 1311365973, 1615383119, 1194066608, 1979875754, 1781853985, 1851529412, 1134673400, 1359921594, 1545571364, 1584104355, 1823282167, 1160512141, 2016001958, 1948975542, 1462475697, 1217687237, 2068202571, 1261278432, 1391077784, 1586810614, 1222696962, 1191150700, 1223881789, 1618240146, 1708839141, 1106626434, 1180119282, 1105723201, 1980702829, 1933888603, 1895891467, 1247971999, 1161572416, 1199919224, 1138909172, 1140956487, 1953213377, 1427987569, 1572047731, 1154875362, 1689030088, 1222182770, 2040035952, 2133871215, 1370966421, 1580747060, 1622328245, 1642473388, 1463182605, 1915861431, 1439395821, 1428484828, 1461183425, 1228703269, 1259725883, 1156966601, 1796357966, 1301313600, 2127843591, 1852777503, 1649350092, 1177795100, 1281971206, 1141590934, 1283352529, 1170659151, 1747013864, 1750739053, 1102105200, 1631547095, 1361823986, 1659189378, 1673923379, 1542765396, 1706965458, 1270155433, 1609736283, 1629160079, 1798210503, 1429956234, 1433318343, 2021861966, 1917643656, 1617994998, 1739522742, 1466716798, 1372520689]> : tensor<96xi32>
    %c1899219683_i32 = arith.constant 1899219683 : i32
    %c2086460944_i32 = arith.constant 2086460944 : i32
    %c2_i32 = arith.constant 2 : i32
    %cst_55 = arith.constant dense<[39, 39, 39, 39, 39, 40, 40, 40, 39, 39, 40, 40, 38, 40, 38, 40, 40, 40, 40, 40, 40, 40, 40, 39]> : tensor<24xi8>
    %cst_56 = arith.constant dense<[1359645826, 1183285301, 1661960902, 1399192674, 1676966778, 1604811029, 1435503836, 1872836056, 1461673516, 2142542589, 1995567942, 1362180659, 1311601558, 1996606874, 1383911396, 1772681228, 1661956233, 2138549930, 1672432294, 1844350825, 1293780509, 1844240915, 1536445541, 1090403265]> : tensor<24xi32>
    %cst_57 = arith.constant dense<[38, 37, 37, 38, 37, 38, 38, 38, 38, 37, 36, 36, 37, 38, 38, 38, 38, 37, 37, 37, 37, 36, 37, 37, 38, 36, 38, 37, 38, 37, 38, 37, 38, 37, 37, 37, 37, 38, 36, 38, 38, 37, 37, 38, 37, 38, 37, 37, 36, 37, 37, 37, 36, 37, 37, 37, 37, 38, 37, 37, 37, 38, 38, 37, 38, 37, 36, 36, 38, 38, 38, 38, 36, 36, 38, 37, 37, 36, 37, 38, 37, 36, 36, 37, 37, 36, 37, 37, 36, 37, 36, 37, 37, 37, 37, 37]> : tensor<96xi8>
    %cst_58 = arith.constant dense<[1207680065, 1317194335, 1228227827, 1757593759, 1089197080, 1711464563, 1828013174, 1363727005, 1748074779, 1142175331, 1298646442, 1135834343, 1077252458, 1807905883, 1710629417, 1553228566, 2086871119, 1279203608, 1130059919, 2137168044, 1506657898, 1159561398, 1830143035, 1307491566, 1122994979, 1512469920, 2018345581, 1327869140, 1199992166, 1406671509, 1719803220, 1209425752, 1485660465, 1608996035, 1337483414, 1469519916, 1908305346, 2075538857, 1859340134, 1559742242, 2071850297, 1364117379, 1332336349, 1468184003, 1243134257, 1617437285, 1587243351, 1913190428, 1185434114, 1210626674, 1175964330, 1078893251, 1149341964, 1238101885, 1661681604, 1255297165, 1371378107, 2139159315, 1487248762, 1618069244, 1078741061, 1189793230, 1472299735, 1303351736, 2073109215, 1134881605, 1456491665, 1373698256, 1122228929, 1808003877, 1886294179, 1868160360, 1247368681, 1220053460, 1813912892, 1782504537, 1470264868, 1112232180, 1636554840, 1920779734, 1728545651, 1298043482, 1682656639, 1650584327, 1983525048, 1634600068, 1419472775, 1704186237, 1897714036, 2065148534, 1139645095, 2027292399, 1150471490, 1412278244, 1424323659, 1631055898]> : tensor<96xi32>
    %cst_59 = arith.constant dense<[38, 38, 38, 38, 38, 39, 38, 38, 38, 38, 37, 39, 39, 38, 39, 38, 39, 39, 38, 39, 39, 38, 38, 38, 38, 40, 39, 39, 39, 37, 39, 39, 38, 39, 39, 39, 39, 37, 39, 38, 39, 38, 39, 38, 38, 39, 38, 38, 38, 39, 38, 39, 38, 39, 39, 39, 38, 38, 39, 39, 39, 39, 38, 38, 38, 39, 39, 38, 38, 38, 39, 39, 39, 40, 39, 39, 38, 39, 39, 39, 39, 39, 39, 40, 39, 39, 40, 39, 40, 38, 39, 40, 39, 39, 40, 39]> : tensor<96xi8>
    %cst_60 = arith.constant dense<[1201070993, 1235902918, 1265276331, 1627937987, 1461232746, 1540093600, 1077489115, 1201410549, 1551583243, 1206347286, 1152165186, 1484358913, 1685898845, 1585017396, 1472967110, 1725033707, 2017318623, 1991420830, 1877853416, 1557250538, 1878177347, 1961431286, 1216153568, 1092356778, 1365866182, 1558320052, 1860427838, 1817600159, 1266690691, 1212165067, 1695225661, 1319927801, 1088420442, 2144503290, 1963614667, 1700607608, 1196587640, 1114743853, 2099028149, 1088825507, 1098087296, 1571490412, 1519006697, 1333614889, 1141931482, 1694830814, 1250193034, 1565926487, 1377043553, 2021351718, 1075814168, 1646464091, 1957014523, 1732455880, 1802818917, 1331471053, 1751903534, 1108198158, 2022492148, 1735619588, 1719058588, 2007645759, 1527200054, 1202326812, 1223292436, 1678686897, 1890547795, 1180790492, 1199847145, 1378800955, 1815489257, 1767770637, 1158852473, 2013132878, 1611266766, 1552742304, 1991806783, 1567402988, 1244651706, 1826330196, 1099125439, 1389023961, 1563748034, 1549086388, 1154925873, 1351984495, 1955241014, 1977216414, 1962361612, 1146893340, 1685507002, 2103928346, 1620701399, 1651695310, 2024185966, 1654325584]> : tensor<96xi32>
    %cst_61 = arith.constant dense<[39, 39, 39, 40, 39, 39, 39, 39, 39, 40, 39, 39, 40, 38, 40, 39, 39, 39, 39, 39, 39, 38, 39, 39]> : tensor<24xi8>
    %cst_62 = arith.constant dense<[1275952521, 1113439740, 1274120546, 1969160766, 1290319796, 1333024577, 1338064904, 1085621819, 1426593652, 2100578944, 1483484811, 2139974163, 2099044678, 1156955200, 1623767823, 1174752306, 1274858451, 1626473178, 1187344877, 1322867695, 1220878624, 1112777374, 1529523446, 1776304223]> : tensor<24xi32>
    %cst_63 = arith.constant dense<[39, 39, 39, 38, 39, 38, 39, 39, 38, 38, 38, 39, 39, 38, 38, 38, 38, 39, 39, 38, 38, 39, 38, 38, 38, 38, 40, 38, 37, 38, 38, 38, 38, 37, 37, 39, 37, 38, 37, 37, 38, 38, 38, 39, 37, 38, 38, 37, 37, 37, 37, 37, 36, 37, 37, 38, 38, 37, 38, 37, 37, 35, 37, 37, 37, 37, 37, 36, 36, 38, 36, 36, 37, 35, 34, 37, 36, 36, 37, 37]> : tensor<80xi8>
    %cst_64 = arith.constant dense<[1663189120, 1968707456, 2003018880, 1317785344, 1984495872, 1374043520, 2069511040, 1795340928, 1489164544, 1184291968, 1313494656, 1089781632, 1804037632, 1332306176, 2144118912, 1075124096, 1587376256, 2145028992, 2106502272, 1281887360, 1744072576, 1780578304, 1633117952, 1310128768, 1563808256, 1908387712, 2122368896, 1138929280, 1163762432, 1427799552, 1731467776, 1375115008, 1899860224, 1119129472, 1919341568, 1888866560, 1168285056, 2085401088, 1075992960, 1363055872, 1685455104, 1317034496, 1467493376, 1925037184, 1466894720, 1336279168, 1487546752, 1643192448, 1346602368, 1081153024, 1604001024, 1304859136, 2090746240, 1288979456, 1231056768, 2013653504, 1875499648, 1185155584, 1311736448, 2122459904, 1845791872, 1507421056, 1887538176, 1934193024, 1670053120, 1694624512, 1983405056, 1124490368, 1454834304, 1825879040, 1195320064, 1266301184, 1481018752, 1508757888, 1244761728, 2106520320, 1092547840, 1989891840, 2125090432, 1213445120]> : tensor<80xi32>
    %cst_65 = arith.constant dense<[38, 38, 37, 37, 38, 38, 37, 37, 38, 37, 38, 36, 38, 38, 38, 37, 38, 38, 38, 37, 38, 37, 37, 37, 38, 38, 36, 38, 37, 37, 38, 38, 39, 38, 37, 37, 38, 38, 38, 38, 38, 38, 38, 37, 38, 37, 38, 37, 38, 38, 39, 39, 39, 39, 39, 38, 39, 39, 38, 38, 39, 39, 40, 39, 39, 38, 40, 40, 40, 39, 40, 40, 39, 40, 39, 41, 40, 40, 40, 39]> : tensor<80xi8>
    %cst_66 = arith.constant dense<[1237117854, 1896922324, 1243447309, 1125211576, 1548659089, 1731748618, 1272952955, 1834821728, 1393057676, 1148953656, 2116884314, 2078247011, 1474747714, 1822446978, 1593974748, 1086996996, 1889071629, 1691479917, 2143052189, 1239037379, 2052298942, 1220528029, 1092739962, 1343345264, 1693154432, 1638958395, 1775256062, 1317560962, 1505119148, 1266206405, 1336721412, 2122845551, 2106990502, 1225277904, 1439949717, 1422533254, 1591881092, 1865447256, 1198317551, 1607297298, 1757580771, 1644547958, 1710720204, 1312297141, 1436738866, 1425471204, 1385667063, 1595983705, 1434248460, 1213220835, 1687649439, 1777420470, 2081193021, 1575359589, 1314740208, 1131806769, 1566330925, 2000025245, 1400598109, 1169425648, 2020389509, 1252655861, 1592505581, 2065594113, 1497287516, 1257918658, 1205830350, 1504032146, 1924597237, 1745440668, 1439779041, 1083510428, 1861170642, 1897686526, 1766003370, 1655687933, 1127010835, 1845328259, 1393156831, 1522510278]> : tensor<80xi32>
    %c50_i8 = arith.constant 50 : i8
    %c1938331585_i32 = arith.constant 1938331585 : i32
    %c11_i8 = arith.constant 11 : i8
    %c1785103811_i32 = arith.constant 1785103811 : i32
    %c10_i8 = arith.constant 10 : i8
    %c1073741824_i32 = arith.constant 1073741824 : i32
    %c6_i32 = arith.constant 6 : i32
    %cst_67 = arith.constant dense<[39, 40, 39, 40, 40, 39, 39, 39, 39, 39, 39, 39, 39, 39, 39, 39]> : tensor<16xi8>
    %cst_68 = arith.constant dense<[1399136514, 1441006493, 1119813729, 1959292139, 2058917253, 1510777815, 1838644863, 1998065287, 1596853815, 1504393850, 1484585706, 1577329505, 1413740491, 1104109149, 1995095866, 1988998978]> : tensor<16xi32>
    %cst_69 = arith.constant dense<[38, 36, 38, 36, 39, 36, 38, 37, 37, 36, 36, 37, 37, 37, 37, 39, 36, 37, 38, 37, 36, 36, 37, 38, 36, 37, 37, 36, 37, 37, 37, 36, 36, 37, 37, 36, 37, 37, 37, 37, 38, 36, 38, 38, 37, 37, 38, 37, 36, 36, 37, 37, 38, 37, 37, 36, 36, 36, 36, 36, 36, 36, 37, 37]> : tensor<64xi8>
    %cst_70 = arith.constant dense<[1098945152, 1208478208, 1104946944, 2118219008, 1142695296, 1667604992, 1706157696, 2061527296, 1729966720, 1244128256, 1491514240, 1857375232, 1674406144, 1973168384, 1427949184, 1339829760, 1092485760, 1506739840, 1598456832, 1678093056, 1484561280, 1539878912, 1628072960, 1632314880, 1982548864, 1878493568, 1741076864, 1128209792, 1864608512, 1502325888, 1749224320, 1177528192, 1086914688, 1708808320, 1471038976, 1846855808, 1338877952, 1601553920, 1519863552, 1923360128, 1158981248, 1491530496, 1965030016, 1683429248, 1782127872, 1301796224, 1460256128, 1313307648, 1588034816, 1282553728, 2000084224, 1841363584, 1575759872, 1846908928, 2089185792, 1510224128, 1104436096, 1200698112, 1415557248, 1226207232, 1780210944, 1144732416, 1339024000, 1542938496]> : tensor<64xi32>
    %cst_71 = arith.constant dense<[38, 37, 37, 38, 37, 37, 37, 39, 38, 37, 39, 38, 37, 37, 38, 36, 37, 38, 38, 38, 38, 38, 37, 36, 39, 37, 38, 37, 38, 38, 38, 38, 39, 37, 39, 38, 38, 38, 38, 37, 37, 37, 38, 37, 38, 37, 37, 38, 38, 39, 39, 38, 38, 40, 40, 37, 39, 39, 38, 38, 38, 39, 38, 38]> : tensor<64xi8>
    %cst_72 = arith.constant dense<[1215709395, 1787390487, 1847999772, 1430990967, 1476746971, 1616542420, 1162932785, 1796004974, 1314994835, 1879935480, 1157141021, 1786654983, 1392402347, 1490772709, 1353074642, 1557526901, 1782434928, 1720882965, 2079467402, 1535822079, 2092544340, 1137520417, 1120693666, 2066405476, 1851758361, 1075117237, 1941488252, 1403671070, 1661086095, 1987286984, 2006235484, 1143300517, 1597379470, 1987279594, 1988577148, 1734002400, 2026908359, 1321122882, 1681766592, 1243376777, 1098744947, 1489801391, 1650633136, 1408276257, 1362685161, 1580636444, 1583070456, 1897580767, 1253712637, 1539486089, 1705923556, 1174107505, 1267689988, 1887026184, 1870627755, 1365268606, 1692478692, 1991047537, 1349587898, 1241198327, 1327793924, 1435383321, 1792699882, 1584776816]> : tensor<64xi32>
    %cst_73 = arith.constant dense<[40, 40, 39, 39, 38, 39, 39, 40, 39, 38, 39, 40, 38, 39, 38, 40]> : tensor<16xi8>
    %cst_74 = arith.constant dense<[1823912262, 2009525273, 1726318538, 1230849408, 1254142739, 1207363979, 1250948138, 1935625109, 1366527647, 1080897545, 1940710194, 1570646698, 1170397723, 1096416619, 1216494916, 1423130972]> : tensor<16xi32>
    %cst_75 = arith.constant dense<[39, 39, 39, 39, 39, 39, 39, 39, 39, 39, 40, 39, 40, 39, 39, 40, 40, 36, 37, 38, 39, 36, 38, 37, 37, 40, 37, 37, 38, 38, 38, 37, 38, 37, 37, 37, 37, 37, 37, 38, 37, 37, 37, 36, 38, 37, 35, 62]> : tensor<48xi8>
    %cst_76 = arith.constant dense<[1672935936, 1459171456, 1670747264, 1458578688, 1441772032, 1719382912, 1553089792, 1855819648, 1967285888, 1548027904, 1553346944, 1316282112, 1892466432, 1320675712, 1128478080, 1890287616, 1765612416, 1221248128, 1355054976, 1584434560, 1461736448, 1393449344, 1089247744, 1212979840, 2081027968, 1826715520, 1309214336, 1429538688, 1931396096, 1239362560, 1898074880, 1334133120, 1150686464, 1837697024, 1786502272, 1715836800, 1347011968, 1923413120, 1463958912, 1974899456, 1908999424, 1235551616, 2061741824, 1285631872, 1734434432, 1602550400, 1740545792, 199752]> : tensor<48xi32>
    %cst_77 = arith.constant dense<[37, 37, 37, 36, 36, 37, 36, 36, 37, 37, 35, 37, 35, 35, 36, 36, 35, 39, 39, 37, 36, 40, 37, 37, 39, 35, 38, 38, 38, 39, 38, 38, 37, 38, 38, 38, 39, 39, 38, 38, 39, 39, 40, 40, 39, 39, 39, 62]> : tensor<48xi8>
    %cst_78 = arith.constant dense<[1534958326, 1663697138, 1551891481, 1217020872, 1123612995, 1583516051, 1308472455, 1103591817, 1596499753, 1354772085, 1141687998, 1860189479, 1209248639, 1269470812, 1495623854, 1967018644, 1496672207, 1275390969, 2114537056, 1833658019, 1328572249, 2087905466, 1708342406, 1337733573, 1961720314, 1248717557, 1974345451, 1825252029, 2114491079, 1906963087, 1287881258, 1333640694, 1241817008, 1161773315, 1538694113, 1750997801, 2002172171, 1406219381, 1506268367, 1087129892, 1365276389, 1600850129, 1722159322, 1687092922, 1744025002, 1650557140, 1609883844, 323921]> : tensor<48xi32>
    %cst_79 = arith.constant dense<[39, 39, 40, 39, 40, 39, 40, 39]> : tensor<8xi8>
    %cst_80 = arith.constant dense<[1308718917, 1698185371, 1929249197, 1205937522, 1960029920, 1771283905, 1975747611, 1183477671]> : tensor<8xi32>
    %cst_81 = arith.constant dense<[37, 35, 37, 36, 36, 37, 37, 37, 62, 37, 62, 35, 37, 37, 35, 38]> : tensor<16xi8>
    %cst_82 = arith.constant dense<[1092635776, 1491145088, 1752513152, 1081371392, 1898408192, 1864630656, 1165762688, 1428539648, 0, 1698944768, 0, 1465019136, 1558556672, 1207623808, 1938488320, 1993927680]> : tensor<16xi32>
    %cst_83 = arith.constant dense<[37, 40, 45, 39, 39, 39, 40, 38, 62, 39, 62, 40, 37, 38, 41, 37]> : tensor<16xi8>
    %cst_84 = arith.constant dense<[1107743020, 1573625918, 1285873886, 2134123434, 1292610952, 1137480749, 1898154059, 1610116501, 0, 1089784875, 0, 1723420058, 1278737459, 1359274976, 1838019827, 1195710853]> : tensor<16xi32>
    %c32_i8 = arith.constant 32 : i8
    %c1073741825_i32 = arith.constant 1073741825 : i32
    %c12_i32 = arith.constant 12 : i32
    %c127_i32 = arith.constant 127 : i32
    %c-15_i32 = arith.constant -15 : i32
    %c-2_i32 = arith.constant -2 : i32
    %c-11_i32 = arith.constant -11 : i32
    %c-9_i32 = arith.constant -9 : i32
    %c-18_i32 = arith.constant -18 : i32
    %c7_i32 = arith.constant 7 : i32
    %c1_i32 = arith.constant 1 : i32
    %c5_i32 = arith.constant 5 : i32
    %c-7_i32 = arith.constant -7 : i32
    %c-22_i32 = arith.constant -22 : i32
    %c-128_i32 = arith.constant -128 : i32
    %c0_i32 = arith.constant 0 : i32
    %c-1_i32 = arith.constant -1 : i32
    %cst_85 = arith.constant dense<"…"> : tensor<2x160xi8>
    %cst_86 = arith.constant dense<"…"> : tensor<160x384xi8>
    %cst_87 = arith.constant dense<"…"> : tensor<384x96xi8>
    %cst_88 = arith.constant dense<"…"> : tensor<96x480xi8>
    %cst_89 = arith.constant dense<"…"> : tensor<480x96xi8>
    %cst_90 = arith.constant dense<"…"> : tensor<96x240xi8>
    %cst_91 = arith.constant dense<"…"> : tensor<240x48xi8>
    %cst_92 = arith.constant dense<"…"> : tensor<48x192xi8>
    %cst_93 = arith.constant dense<"…"> : tensor<192x48xi8>
    %cst_94 = arith.constant dense<"…"> : tensor<48x120xi8>
    %cst_95 = arith.constant dense<"…"> : tensor<120x40xi8>
    %cst_96 = arith.constant dense<"…"> : tensor<40x120xi8>
    %cst_97 = arith.constant dense<"…"> : tensor<120x40xi8>
    %cst_98 = arith.constant dense<"…"> : tensor<40x160xi8>
    %cst_99 = arith.constant dense<"…"> : tensor<160x40xi8>
    %cst_100 = arith.constant dense<"…"> : tensor<40x120xi8>
    %cst_101 = arith.constant dense<"…"> : tensor<120x24xi8>
    %cst_102 = arith.constant dense<"…"> : tensor<24x96xi8>
    %cst_103 = arith.constant dense<"…"> : tensor<96x24xi8>
    %cst_104 = arith.constant dense<"…"> : tensor<24x96xi8>
    %cst_105 = arith.constant dense<"…"> : tensor<96x24xi8>
    %cst_106 = arith.constant dense<"…"> : tensor<24x80xi8>
    %cst_107 = arith.constant dense<"…"> : tensor<80x16xi8>
    %cst_108 = arith.constant dense<"…"> : tensor<16x64xi8>
    %cst_109 = arith.constant dense<"…"> : tensor<64x16xi8>
    %cst_110 = arith.constant dense<"…"> : tensor<16x48xi8>
    %cst_111 = arith.constant dense<"…"> : tensor<48x8xi8>
    %cst_112 = arith.constant dense<"…"> : tensor<8x16xi8>
    %c-128_i8 = arith.constant -128 : i8
    %cst_113 = arith.constant dense<"…"> : tensor<7x7x384x1xi8>
    %cst_114 = arith.constant dense<"…"> : tensor<5x5x480x1xi8>
    %cst_115 = arith.constant dense<"…"> : tensor<7x7x240x1xi8>
    %cst_116 = arith.constant dense<"…"> : tensor<3x3x192x1xi8>
    %cst_117 = arith.constant dense<"…"> : tensor<3x3x120x1xi8>
    %cst_118 = arith.constant dense<"…"> : tensor<7x7x120x1xi8>
    %cst_119 = arith.constant dense<"…"> : tensor<3x3x160x1xi8>
    %cst_120 = arith.constant dense<"…"> : tensor<3x3x120x1xi8>
    %cst_121 = arith.constant dense<"…"> : tensor<3x3x96x1xi8>
    %cst_122 = arith.constant dense<"…"> : tensor<3x3x96x1xi8>
    %cst_123 = arith.constant dense<"…"> : tensor<3x3x80x1xi8>
    %cst_124 = arith.constant dense<"…"> : tensor<3x3x64x1xi8>
    %cst_125 = arith.constant dense<"…"> : tensor<5x5x48x1xi8>
    %cst_126 = arith.constant dense<"…"> : tensor<3x3x16x1xi8>
    %cst_127 = arith.constant dense<[1433, -1156]> : tensor<2xi32>
    %cst_128 = arith.constant dense<"…"> : tensor<160xi32>
    %cst_129 = arith.constant dense<"…"> : tensor<384xi32>
    %cst_130 = arith.constant dense<"…"> : tensor<384xi32>
    %cst_131 = arith.constant dense<[-1161, -6772, -3340, -1774, -7233, 6162, 404, -11419, 15148, -4836, -1071, -1714, -4503, -14355, -8608, -3401, 6811, 10452, 861, -6558, 5735, -9932, 3516, 10845, 3883, 6910, -8460, -9564, 122, 1308, 3861, -245, -10145, -1, 6803, -23215, 120, 3375, -1421, 12110, 15635, -11362, -2512, 6225, 2772, -9175, -9633, 19646, 15987, -8283, 13976, 9931, 9232, -12146, -11, 11619, -12998, 7459, 223, -7098, 1073, -1500, -7189, 5542, -2038, -1888, -7295, -10687, 6756, -1597, -9255, -8735, 6577, -2569, 13708, 10958, -20908, 13526, 739, -12341, 14909, -7501, 15932, 15935, -19698, -5642, -4070, -982, -6904, 164, -6738, -21122, 13758, -7257, -2181, -829]> : tensor<96xi32>
    %cst_132 = arith.constant dense<"…"> : tensor<480xi32>
    %cst_133 = arith.constant dense<"…"> : tensor<480xi32>
    %cst_134 = arith.constant dense<[8772, 3042, -9797, -27637, -9728, -5890, -11861, -13682, 33183, 1339, 16724, -12647, -19782, -7028, -20174, -3508, 6222, -6045, 17789, -13653, -22268, -12495, 20828, 3818, 7503, 7267, 10008, 3232, 19746, 413, -4624, -5600, 21163, -11612, 16063, 25778, -4021, -7706, -343, -23883, -3597, -27074, 44060, -13376, -2668, 29759, -3752, -9310, -3307, 77, -15392, -11852, -265, -489, -16933, 5726, -2973, 15707, -1215, 12367, -277, -8524, -11067, 10675, 9651, -11210, -1325, -10040, -14595, 9957, 8025, 10147, 3643, 14409, 592, -20480, -4517, 31885, 13750, -6212, -14223, -12783, -36106, 8630, -21160, -23230, -24362, 21498, -764, -10961, -15216, 3437, 18958, 21907, -17502, 11614]> : tensor<96xi32>
    %cst_135 = arith.constant dense<"…"> : tensor<240xi32>
    %cst_136 = arith.constant dense<"…"> : tensor<240xi32>
    %cst_137 = arith.constant dense<[2313, 16123, 1306, -11273, 1035, -9081, 9562, 3931, -4143, 3784, 4258, -8494, 4296, 5815, 384, 2216, -4480, -1137, -4350, -3089, 6173, 957, 589, 6322, -3653, -5251, -9355, -5082, 2543, -3250, 4945, 1803, 1583, 1304, -4153, 2463, -9461, 5165, 11530, 5386, -10201, -947, -6494, -1920, 5476, 10699, -2506, 2047]> : tensor<48xi32>
    %cst_138 = arith.constant dense<"…"> : tensor<192xi32>
    %cst_139 = arith.constant dense<"…"> : tensor<192xi32>
    %cst_140 = arith.constant dense<[6724, -4303, -1710, 8078, -11231, 6787, -2131, 7854, 4313, 1358, -19616, -4717, -185, -7987, 8972, 8310, 1901, -9731, 9239, -1356, -7951, 5334, -21030, 22958, -11755, -15744, -10481, -238, -13717, -1051, 8189, -15333, 2241, 13271, -7005, -7515, -1509, -13352, -13314, 13526, 6251, -14233, -13351, -2411, -1788, -1951, 6623, -1093]> : tensor<48xi32>
    %cst_141 = arith.constant dense<"…"> : tensor<120xi32>
    %cst_142 = arith.constant dense<"…"> : tensor<120xi32>
    %cst_143 = arith.constant dense<[-5062, 474, 5496, 1738, -6166, 1478, -2999, -1433, -1173, -3005, -2585, 100, -189, -1816, -1060, -10091, 8143, 577, -2623, -7061, -789, -1096, 11389, -7626, -2001, 12434, 8556, -1707, 671, -5988, -3208, -8926, -6603, 2476, -2627, -13282, -3578, 1904, 4568, 4195]> : tensor<40xi32>
    %cst_144 = arith.constant dense<"…"> : tensor<120xi32>
    %cst_145 = arith.constant dense<"…"> : tensor<120xi32>
    %cst_146 = arith.constant dense<[-6158, -2599, -709, -19, 8243, -4622, 72, 11436, 11632, -980, 10066, -11029, 3557, 6859, 8020, -9327, -7134, -5190, -9992, 4353, -9284, -4909, -2031, 1512, -415, -10118, -1059, -3122, -3871, -2769, 17600, -2961, -806, -7328, -6426, -1746, 4301, -7023, 1708, 8087]> : tensor<40xi32>
    %cst_147 = arith.constant dense<"…"> : tensor<160xi32>
    %cst_148 = arith.constant dense<"…"> : tensor<160xi32>
    %cst_149 = arith.constant dense<[-1599, -15381, -2662, -3319, -17936, 17021, -8640, -2780, -21241, -9238, -7767, -2423, -8290, 259, 12671, 8365, -10796, -8316, -2558, -16764, 17472, 9428, -17199, -17722, 11914, -2677, 17527, -3668, -612, -5486, -13567, 2654, -18710, -1921, -6149, -15346, 14068, 16269, 8084, 15485]> : tensor<40xi32>
    %cst_150 = arith.constant dense<"…"> : tensor<120xi32>
    %cst_151 = arith.constant dense<"…"> : tensor<120xi32>
    %cst_152 = arith.constant dense<[4062, -3621, 4941, -5659, -2685, 8906, 4973, 12348, -4308, 224, -5030, -197, -1563, -2255, -8821, 2329, 327, -2252, -6720, -2859, 2327, 1046, 2354, 1611]> : tensor<24xi32>
    %cst_153 = arith.constant dense<[-23152, 1019, 9151, -2001, -3901, -219, -10657, -24, 906, -6300, -1835, -2321, -548, 4529, -1769, -2685, -233, -1348, 4719, -786, 6883, -150, -143, 1817, -2513, -2529, -1486, -2182, 1331, -814, 10141, -1977, -9657, -2725, -1738, 1049, 457, 6530, -1987, 5504, 4109, -2648, -1791, -1001, 10422, -1364, -921, -1610, -436, 5657, -5824, -6635, -385, -810, -853, 4830, -1713, -3366, -3242, 6552, -2196, 5242, 6409, -2171, 721, -1731, 3789, -369, -3509, -7539, 2770, -555, -2475, -2440, -2221, -2708, -876, -1965, -329, -4448, -2746, -3106, -2014, -1608, 4297, -1053, -943, -5316, -1241, -127, -553, -2180, -786, -361, -2249, -86]> : tensor<96xi32>
    %cst_154 = arith.constant dense<[496, 17168, -8134, 1357, -1279, 5941, 264, 12583, 6090, 2909, 1941, 6337, 2513, -759, 1592, -5738, 5868, -2206, -1913, 3541, 1896, 605, -2143, 5294, 323, 12016, -2536, 4776, -4223, 4354, 7164, 1897, -818, 1289, -2366, 8270, 5567, 3710, 7061, -1412, -1119, 1371, 2184, 1446, -1868, 8156, 2965, -873, 2600, -1082, -1905, -3231, 6180, 2596, 1735, -1682, 3354, -2514, 4032, -4120, 2272, 8709, 3895, -6127, -2684, 5495, -3970, -1831, 6884, -2990, -5218, 2295, 3547, 1755, 1761, 4182, -1491, 2829, 3918, -3990, -2655, -2481, -1249, 3254, -9421, -8747, 8913, -453, -4939, -2633, -6443, 705, 5617, 1463, -3181, 6049]> : tensor<96xi32>
    %cst_155 = arith.constant dense<[-3244, -4229, -1097, 5017, 1477, 2796, -780, -8852, 3705, -2796, -21226, 3617, -1071, 327, 4807, -8267, 8777, 3219, -1005, -1881, 4956, 9129, 1805, -4834]> : tensor<24xi32>
    %cst_156 = arith.constant dense<[9723, 5676, -4678, -3239, 5872, 5764, 7558, 12482, 7611, 6296, -464, 1399, -951, -3745, -232, 10154, 5300, 6648, -2127, -110, 180, -351, -611, -154, 5892, -849, 2232, -48, 11357, 2967, 8049, 6794, -1278, 7093, 4363, 273, 4048, 6425, -468, 5875, -650, 3492, 4606, 3947, -570, -1906, 89, 306, -2095, -647, 73, -677, -354, -3700, -1320, 3728, -349, -504, -1604, -979, -1949, 9774, -2146, 645, -651, -2556, -862, -598, 6414, -527, -444, -88, -332, -1593, 4412, -70, -409, -222, -369, -54, -1186, -469, -165, -510, -1763, 1023, -306, 2030, -117, -305, 1409, -532, 1600, -243, 3483, 465]> : tensor<96xi32>
    %cst_157 = arith.constant dense<[10565, 6820, 3469, 1792, 5019, 3562, 4740, 6474, 3710, 1517, 1441, 12998, 10381, -1524, 8998, 2889, 3291, 7887, 820, 7248, 7807, 2263, -2039, 4227, 1343, 17786, 6132, -5580, 16410, 58, 12757, 11779, 534, 10308, 2076, 6616, 11006, 2394, -4819, 4184, 12932, 358, 10358, 3623, 7490, 9077, 3680, 2398, -2085, 1621, 5474, 6214, 1184, 586, -1288, 10712, 3157, 6085, -1079, 6593, -903, 8629, 50, 4122, 5883, 344, 3101, -2029, 1140, 5013, 7532, 5507, 1371, 3486, -473, 2027, -1359, 4113, 4954, 3530, -2509, 4913, 1804, 4719, 3542, 4653, -225, -3084, -2044, 1022, -2035, 5053, 2585, 1697, 8210, 1608]> : tensor<96xi32>
    %cst_158 = arith.constant dense<[-1808, -7607, -4990, 7353, 17198, 6540, -786, -13954, 12340, -22595, -120, 5476, 584, -4943, 12485, -16007, 4354, 5077, 19700, 8427, 1005, -5980, -13197, 3261]> : tensor<24xi32>
    %cst_159 = arith.constant dense<[-852, 1272, -144, 20042, -556, 475, -412, 1458, 685, -763, 19475, 1015, 339, 689, 175, 25497, 977, -639, 985, -1132, 515, 243, 8000, 839, 14802, 9943, 1658, 17012, -232, 10574, 9773, 13660, 7636, 6600, 262, 362, 3791, 8, 5246, 24, 8401, 9715, 6888, 14049, -8, -1178, -76, -82, 1856, 3269, 2756, 2232, 1396, 3633, 2547, 2828, 3354, 3479, 9681, 3, 1546, -43, -668, -668, 1896, -196, 133, -390, 838, 2550, -249, 146, -5, 332, -15, 2553, 930, -77, 886, 1994]> : tensor<80xi32>
    %cst_160 = arith.constant dense<[7142, -26, 1510, -829, 3175, -1702, 1817, 389, -1700, 76, -225, -148, 5872, -429, -1487, 1296, -1523, 1117, -1214, 18, -4529, -425, -2212, -1175, -685, -830, -146, 1362, -1527, -741, -1533, -1182, -375, -2258, -3287, 1215, -2060, -4110, -1755, -3990, 1081, 1093, -1543, 821, -4963, 77, -1569, -1992, -1060, 302, -4054, -406, -5829, 1994, -853, 911, -1010, -2872, -2467, -2396, -716, -6677, 4021, -2036, -1285, -1103, 2343, 974, -2778, -1659, 233, 4822, -1949, -3127, -6113, 8248, 3381, -7493, 53, -952]> : tensor<80xi32>
    %cst_161 = arith.constant dense<[-18966, 7551, 15710, -12687, -23895, 3424, -17511, -12091, -3582, 13089, -12770, -11087, 13391, -9193, 1661, 15896]> : tensor<16xi32>
    %cst_162 = arith.constant dense<[18367, -1601, 12688, 4794, 3196, 1745, 10172, -298, -79, -3126, 1353, 2774, -447, -360, 115, 11777, 1535, -194, 7371, 3027, 2305, -219, -335, 5232, -2035, -6593, 478, -318, 2219, 34, -349, -429, 130, -3048, 97, -1950, -296, 2378, 3461, 1289, 228, 323, 2908, 7887, 3722, 1332, 6573, 8225, -595, -1038, 26, -215, -3511, -464, -441, -836, -135, -236, -736, 121, 971, -416, -380, -375]> : tensor<64xi32>
    %cst_163 = arith.constant dense<[10025, 651, 2808, 6500, 1468, -925, 1485, 9430, 4294, 566, 10099, 2183, 1098, 64, 3043, 1624, -760, 3275, 186, 3685, -1120, 6293, 2287, 1513, 4275, 4434, 1778, 103, 3899, 1272, 1772, 5780, 7119, 14, 6053, 1453, 2240, 5848, 549, 1583, -421, 1324, 1422, 3129, -723, 2255, 1325, 5303, 1867, 5263, 3114, 435, 1393, 5140, 8671, -1071, 4374, 2101, -2207, 2157, -1050, 4075, 1911, 1587]> : tensor<64xi32>
    %cst_164 = arith.constant dense<[9329, 13762, 21378, 5001, -9908, 23849, 12541, -1009, 3165, 4224, -11036, -25401, 6141, 5235, -4399, 2751]> : tensor<16xi32>
    %cst_165 = arith.constant dense<[-952, 2023, 41636, 1547, 44145, 40175, -254, 138, 333, 44515, 86041, 2283, 376, 15275, 53743, 3987, 96100, 853, 73, 5812, 1318, -256, 4073, 3862, -3207, 2171, 4125, 9760, 14203, -731, 2312, 2265, 4600, -10, 1120, 1628, 207, -517, 1058, 3054, 1483, 1663, 1106, 484, 1477, 1576, -1, 43602308]> : tensor<48xi32>
    %cst_166 = arith.constant dense<[929, -649, -477, 239, 17, 2130, 1272, -126, 79, -314, 2, 43, 101, 87, -208, -105, 405, 10809, 6449, -930, -297, 16541, -474, -133, 5419, 142, 4144, 1978, 2626, 5966, 4392, 349, 410, 345, 1037, 163, 1468, 2939, 57, -444, 2420, -2128, 2929, 3875, 1309, -798, -3265, -185113824]> : tensor<48xi32>
    %cst_167 = arith.constant dense<[6537, 14694, 3416, -25784, -20591, 5895, 6305, -31318]> : tensor<8xi32>
    %cst_168 = arith.constant dense<[15317, -477, 13242, 12574, 33, -2053, 14638, 8909, -2147483647, 2892, -2147483647, -729, 1396, 15404, -500, 19748]> : tensor<16xi32>
    %cst_169 = arith.constant dense<[12751, -18564, 1887996, 17885, 19328, 21645, 48075, 9611, -2147483647, 29692, 2147483647, -15110, 1541, 14690, -24607, 9572]> : tensor<16xi32>
    %cst_170 = arith.constant dense<"…"> : tensor<16x3x3x3xi8>
    %c-1_i8 = arith.constant -1 : i8
    %c0 = arith.constant 0 : index
    %c1 = arith.constant 1 : index
    %c2 = arith.constant 2 : index
    %c3 = arith.constant 3 : index
    %padded = tensor.pad %arg0 low[%c0, %c1, %c1, %c0] high[%c0, %c1, %c1, %c0] {
    ^bb0(%arg1: index, %arg2: index, %arg3: index, %arg4: index):
      tensor.yield %c-1_i8 : i8
    } : tensor<1x64x64x3xi8> to tensor<1x66x66x3xi8>
    %0 = tensor.empty() : tensor<3x3x3x16xi8>
    %transposed = linalg.transpose ins(%cst_170 : tensor<16x3x3x3xi8>) outs(%0 : tensor<3x3x3x16xi8>) permutation = [1, 2, 3, 0] 
    %1 = tensor.empty() : tensor<1x32x32x16xi32>
    %2 = linalg.generic {indexing_maps = [#map, #map1], iterator_types = ["parallel", "parallel", "parallel", "parallel"]} ins(%cst_169 : tensor<16xi32>) outs(%1 : tensor<1x32x32x16xi32>) {
    ^bb0(%in: i32, %out: i32):
      linalg.yield %in : i32
    } -> tensor<1x32x32x16xi32>
    %3 = linalg.conv_2d_nhwc_hwcf_q {dilations = dense<1> : tensor<2xi64>, strides = dense<2> : tensor<2xi64>} ins(%padded, %transposed, %c-1_i32, %c0_i32 : tensor<1x66x66x3xi8>, tensor<3x3x3x16xi8>, i32, i32) outs(%2 : tensor<1x32x32x16xi32>) -> tensor<1x32x32x16xi32>
    %4 = tensor.empty() : tensor<1x32x32x16xi8>
    %5 = linalg.generic {indexing_maps = [#map1, #map, #map, #map1], iterator_types = ["parallel", "parallel", "parallel", "parallel"]} ins(%3, %cst_84, %cst_83 : tensor<1x32x32x16xi32>, tensor<16xi32>, tensor<16xi8>) outs(%4 : tensor<1x32x32x16xi8>) {
    ^bb0(%in: i32, %in_282: i32, %in_283: i8, %out: i8):
      %348 = tosa.apply_scale %in, %in_282, %in_283 {rounding_mode = DOUBLE_ROUND} : (i32, i32, i8) -> i32
      %349 = arith.addi %348, %c-128_i32 : i32
      %350 = arith.maxsi %349, %c-128_i32 : i32
      %351 = arith.minsi %350, %c127_i32 : i32
      %352 = arith.trunci %351 : i32 to i8
      linalg.yield %352 : i8
    } -> tensor<1x32x32x16xi8>
    %padded_171 = tensor.pad %5 low[%c0, %c1, %c1, %c0] high[%c0, %c1, %c1, %c0] {
    ^bb0(%arg1: index, %arg2: index, %arg3: index, %arg4: index):
      tensor.yield %c-128_i8 : i8
    } : tensor<1x32x32x16xi8> to tensor<1x34x34x16xi8>
    %6 = tensor.empty() : tensor<1x32x32x16x1xi32>
    %7 = linalg.fill ins(%c0_i32 : i32) outs(%6 : tensor<1x32x32x16x1xi32>) -> tensor<1x32x32x16x1xi32>
    %8 = tensor.empty() : tensor<1x32x32x16xi32>
    %9 = linalg.depthwise_conv_2d_nhwc_hwcm_q {dilations = dense<1> : tensor<2xi64>, strides = dense<1> : tensor<2xi64>} ins(%padded_171, %cst_126, %c-128_i32, %c0_i32 : tensor<1x34x34x16xi8>, tensor<3x3x16x1xi8>, i32, i32) outs(%7 : tensor<1x32x32x16x1xi32>) -> tensor<1x32x32x16x1xi32>
    %collapsed = tensor.collapse_shape %9 [[0], [1], [2], [3, 4]] : tensor<1x32x32x16x1xi32> into tensor<1x32x32x16xi32>
    %10 = linalg.generic {indexing_maps = [#map, #map1, #map1], iterator_types = ["parallel", "parallel", "parallel", "parallel"]} ins(%cst_168, %collapsed : tensor<16xi32>, tensor<1x32x32x16xi32>) outs(%8 : tensor<1x32x32x16xi32>) {
    ^bb0(%in: i32, %in_282: i32, %out: i32):
      %348 = arith.addi %in, %in_282 : i32
      linalg.yield %348 : i32
    } -> tensor<1x32x32x16xi32>
    %11 = tensor.empty() : tensor<1x32x32x16xi8>
    %12 = linalg.generic {indexing_maps = [#map1, #map, #map, #map1], iterator_types = ["parallel", "parallel", "parallel", "parallel"]} ins(%10, %cst_82, %cst_81 : tensor<1x32x32x16xi32>, tensor<16xi32>, tensor<16xi8>) outs(%11 : tensor<1x32x32x16xi8>) {
    ^bb0(%in: i32, %in_282: i32, %in_283: i8, %out: i8):
      %348 = tosa.apply_scale %in, %in_282, %in_283 {rounding_mode = DOUBLE_ROUND} : (i32, i32, i8) -> i32
      %349 = arith.addi %348, %c-128_i32 : i32
      %350 = arith.maxsi %349, %c-128_i32 : i32
      %351 = arith.minsi %350, %c127_i32 : i32
      %352 = arith.trunci %351 : i32 to i8
      linalg.yield %352 : i8
    } -> tensor<1x32x32x16xi8>
    %collapsed_172 = tensor.collapse_shape %12 [[0, 1, 2], [3]] : tensor<1x32x32x16xi8> into tensor<1024x16xi8>
    %13 = tensor.empty() : tensor<16x8xi8>
    %transposed_173 = linalg.transpose ins(%cst_112 : tensor<8x16xi8>) outs(%13 : tensor<16x8xi8>) permutation = [1, 0] 
    %14 = tensor.empty() : tensor<1024x8xi32>
    %15 = linalg.generic {indexing_maps = [#map2, #map3], iterator_types = ["parallel", "parallel"]} ins(%cst_167 : tensor<8xi32>) outs(%14 : tensor<1024x8xi32>) {
    ^bb0(%in: i32, %out: i32):
      linalg.yield %in : i32
    } -> tensor<1024x8xi32>
    %16 = linalg.quantized_matmul ins(%collapsed_172, %transposed_173, %c-128_i32, %c0_i32 : tensor<1024x16xi8>, tensor<16x8xi8>, i32, i32) outs(%15 : tensor<1024x8xi32>) -> tensor<1024x8xi32>
    %expanded = tensor.expand_shape %16 [[0, 1, 2], [3]] output_shape [1, 32, 32, 8] : tensor<1024x8xi32> into tensor<1x32x32x8xi32>
    %17 = tensor.empty() : tensor<1x32x32x8xi8>
    %18 = linalg.generic {indexing_maps = [#map1, #map, #map, #map1], iterator_types = ["parallel", "parallel", "parallel", "parallel"]} ins(%expanded, %cst_80, %cst_79 : tensor<1x32x32x8xi32>, tensor<8xi32>, tensor<8xi8>) outs(%17 : tensor<1x32x32x8xi8>) {
    ^bb0(%in: i32, %in_282: i32, %in_283: i8, %out: i8):
      %348 = tosa.apply_scale %in, %in_282, %in_283 {rounding_mode = DOUBLE_ROUND} : (i32, i32, i8) -> i32
      %349 = arith.maxsi %348, %c-128_i32 : i32
      %350 = arith.minsi %349, %c127_i32 : i32
      %351 = arith.trunci %350 : i32 to i8
      linalg.yield %351 : i8
    } -> tensor<1x32x32x8xi8>
    %collapsed_174 = tensor.collapse_shape %18 [[0, 1, 2], [3]] : tensor<1x32x32x8xi8> into tensor<1024x8xi8>
    %19 = tensor.empty() : tensor<8x48xi8>
    %transposed_175 = linalg.transpose ins(%cst_111 : tensor<48x8xi8>) outs(%19 : tensor<8x48xi8>) permutation = [1, 0] 
    %20 = tensor.empty() : tensor<1024x48xi32>
    %21 = linalg.generic {indexing_maps = [#map2, #map3], iterator_types = ["parallel", "parallel"]} ins(%cst_166 : tensor<48xi32>) outs(%20 : tensor<1024x48xi32>) {
    ^bb0(%in: i32, %out: i32):
      linalg.yield %in : i32
    } -> tensor<1024x48xi32>
    %22 = linalg.quantized_matmul ins(%collapsed_174, %transposed_175, %c0_i32, %c0_i32 : tensor<1024x8xi8>, tensor<8x48xi8>, i32, i32) outs(%21 : tensor<1024x48xi32>) -> tensor<1024x48xi32>
    %expanded_176 = tensor.expand_shape %22 [[0, 1, 2], [3]] output_shape [1, 32, 32, 48] : tensor<1024x48xi32> into tensor<1x32x32x48xi32>
    %23 = tensor.empty() : tensor<1x32x32x48xi8>
    %24 = linalg.generic {indexing_maps = [#map1, #map, #map, #map1], iterator_types = ["parallel", "parallel", "parallel", "parallel"]} ins(%expanded_176, %cst_78, %cst_77 : tensor<1x32x32x48xi32>, tensor<48xi32>, tensor<48xi8>) outs(%23 : tensor<1x32x32x48xi8>) {
    ^bb0(%in: i32, %in_282: i32, %in_283: i8, %out: i8):
      %348 = tosa.apply_scale %in, %in_282, %in_283 {rounding_mode = DOUBLE_ROUND} : (i32, i32, i8) -> i32
      %349 = arith.addi %348, %c-128_i32 : i32
      %350 = arith.maxsi %349, %c-128_i32 : i32
      %351 = arith.minsi %350, %c127_i32 : i32
      %352 = arith.trunci %351 : i32 to i8
      linalg.yield %352 : i8
    } -> tensor<1x32x32x48xi8>
    %padded_177 = tensor.pad %24 low[%c0, %c2, %c2, %c0] high[%c0, %c2, %c2, %c0] {
    ^bb0(%arg1: index, %arg2: index, %arg3: index, %arg4: index):
      tensor.yield %c-128_i8 : i8
    } : tensor<1x32x32x48xi8> to tensor<1x36x36x48xi8>
    %25 = tensor.empty() : tensor<1x16x16x48x1xi32>
    %26 = linalg.fill ins(%c0_i32 : i32) outs(%25 : tensor<1x16x16x48x1xi32>) -> tensor<1x16x16x48x1xi32>
    %27 = tensor.empty() : tensor<1x16x16x48xi32>
    %28 = linalg.depthwise_conv_2d_nhwc_hwcm_q {dilations = dense<1> : tensor<2xi64>, strides = dense<2> : tensor<2xi64>} ins(%padded_177, %cst_125, %c-128_i32, %c0_i32 : tensor<1x36x36x48xi8>, tensor<5x5x48x1xi8>, i32, i32) outs(%26 : tensor<1x16x16x48x1xi32>) -> tensor<1x16x16x48x1xi32>
    %collapsed_178 = tensor.collapse_shape %28 [[0], [1], [2], [3, 4]] : tensor<1x16x16x48x1xi32> into tensor<1x16x16x48xi32>
    %29 = linalg.generic {indexing_maps = [#map, #map1, #map1], iterator_types = ["parallel", "parallel", "parallel", "parallel"]} ins(%cst_165, %collapsed_178 : tensor<48xi32>, tensor<1x16x16x48xi32>) outs(%27 : tensor<1x16x16x48xi32>) {
    ^bb0(%in: i32, %in_282: i32, %out: i32):
      %348 = arith.addi %in, %in_282 : i32
      linalg.yield %348 : i32
    } -> tensor<1x16x16x48xi32>
    %30 = tensor.empty() : tensor<1x16x16x48xi8>
    %31 = linalg.generic {indexing_maps = [#map1, #map, #map, #map1], iterator_types = ["parallel", "parallel", "parallel", "parallel"]} ins(%29, %cst_76, %cst_75 : tensor<1x16x16x48xi32>, tensor<48xi32>, tensor<48xi8>) outs(%30 : tensor<1x16x16x48xi8>) {
    ^bb0(%in: i32, %in_282: i32, %in_283: i8, %out: i8):
      %348 = tosa.apply_scale %in, %in_282, %in_283 {rounding_mode = DOUBLE_ROUND} : (i32, i32, i8) -> i32
      %349 = arith.addi %348, %c-128_i32 : i32
      %350 = arith.maxsi %349, %c-128_i32 : i32
      %351 = arith.minsi %350, %c127_i32 : i32
      %352 = arith.trunci %351 : i32 to i8
      linalg.yield %352 : i8
    } -> tensor<1x16x16x48xi8>
    %collapsed_179 = tensor.collapse_shape %31 [[0, 1, 2], [3]] : tensor<1x16x16x48xi8> into tensor<256x48xi8>
    %32 = tensor.empty() : tensor<48x16xi8>
    %transposed_180 = linalg.transpose ins(%cst_110 : tensor<16x48xi8>) outs(%32 : tensor<48x16xi8>) permutation = [1, 0] 
    %33 = tensor.empty() : tensor<256x16xi32>
    %34 = linalg.generic {indexing_maps = [#map2, #map3], iterator_types = ["parallel", "parallel"]} ins(%cst_164 : tensor<16xi32>) outs(%33 : tensor<256x16xi32>) {
    ^bb0(%in: i32, %out: i32):
      linalg.yield %in : i32
    } -> tensor<256x16xi32>
    %35 = linalg.quantized_matmul ins(%collapsed_179, %transposed_180, %c-128_i32, %c0_i32 : tensor<256x48xi8>, tensor<48x16xi8>, i32, i32) outs(%34 : tensor<256x16xi32>) -> tensor<256x16xi32>
    %expanded_181 = tensor.expand_shape %35 [[0, 1, 2], [3]] output_shape [1, 16, 16, 16] : tensor<256x16xi32> into tensor<1x16x16x16xi32>
    %36 = tensor.empty() : tensor<1x16x16x16xi8>
    %37 = linalg.generic {indexing_maps = [#map1, #map, #map, #map1], iterator_types = ["parallel", "parallel", "parallel", "parallel"]} ins(%expanded_181, %cst_74, %cst_73 : tensor<1x16x16x16xi32>, tensor<16xi32>, tensor<16xi8>) outs(%36 : tensor<1x16x16x16xi8>) {
    ^bb0(%in: i32, %in_282: i32, %in_283: i8, %out: i8):
      %348 = tosa.apply_scale %in, %in_282, %in_283 {rounding_mode = DOUBLE_ROUND} : (i32, i32, i8) -> i32
      %349 = arith.addi %348, %c-22_i32 : i32
      %350 = arith.maxsi %349, %c-128_i32 : i32
      %351 = arith.minsi %350, %c127_i32 : i32
      %352 = arith.trunci %351 : i32 to i8
      linalg.yield %352 : i8
    } -> tensor<1x16x16x16xi8>
    %collapsed_182 = tensor.collapse_shape %37 [[0, 1, 2], [3]] : tensor<1x16x16x16xi8> into tensor<256x16xi8>
    %38 = tensor.empty() : tensor<16x64xi8>
    %transposed_183 = linalg.transpose ins(%cst_109 : tensor<64x16xi8>) outs(%38 : tensor<16x64xi8>) permutation = [1, 0] 
    %39 = tensor.empty() : tensor<256x64xi32>
    %40 = linalg.generic {indexing_maps = [#map2, #map3], iterator_types = ["parallel", "parallel"]} ins(%cst_163 : tensor<64xi32>) outs(%39 : tensor<256x64xi32>) {
    ^bb0(%in: i32, %out: i32):
      linalg.yield %in : i32
    } -> tensor<256x64xi32>
    %41 = linalg.quantized_matmul ins(%collapsed_182, %transposed_183, %c-22_i32, %c0_i32 : tensor<256x16xi8>, tensor<16x64xi8>, i32, i32) outs(%40 : tensor<256x64xi32>) -> tensor<256x64xi32>
    %expanded_184 = tensor.expand_shape %41 [[0, 1, 2], [3]] output_shape [1, 16, 16, 64] : tensor<256x64xi32> into tensor<1x16x16x64xi32>
    %42 = tensor.empty() : tensor<1x16x16x64xi8>
    %43 = linalg.generic {indexing_maps = [#map1, #map, #map, #map1], iterator_types = ["parallel", "parallel", "parallel", "parallel"]} ins(%expanded_184, %cst_72, %cst_71 : tensor<1x16x16x64xi32>, tensor<64xi32>, tensor<64xi8>) outs(%42 : tensor<1x16x16x64xi8>) {
    ^bb0(%in: i32, %in_282: i32, %in_283: i8, %out: i8):
      %348 = tosa.apply_scale %in, %in_282, %in_283 {rounding_mode = DOUBLE_ROUND} : (i32, i32, i8) -> i32
      %349 = arith.addi %348, %c-128_i32 : i32
      %350 = arith.maxsi %349, %c-128_i32 : i32
      %351 = arith.minsi %350, %c127_i32 : i32
      %352 = arith.trunci %351 : i32 to i8
      linalg.yield %352 : i8
    } -> tensor<1x16x16x64xi8>
    %padded_185 = tensor.pad %43 low[%c0, %c1, %c1, %c0] high[%c0, %c1, %c1, %c0] {
    ^bb0(%arg1: index, %arg2: index, %arg3: index, %arg4: index):
      tensor.yield %c-128_i8 : i8
    } : tensor<1x16x16x64xi8> to tensor<1x18x18x64xi8>
    %44 = tensor.empty() : tensor<1x16x16x64x1xi32>
    %45 = linalg.fill ins(%c0_i32 : i32) outs(%44 : tensor<1x16x16x64x1xi32>) -> tensor<1x16x16x64x1xi32>
    %46 = tensor.empty() : tensor<1x16x16x64xi32>
    %47 = linalg.depthwise_conv_2d_nhwc_hwcm_q {dilations = dense<1> : tensor<2xi64>, strides = dense<1> : tensor<2xi64>} ins(%padded_185, %cst_124, %c-128_i32, %c0_i32 : tensor<1x18x18x64xi8>, tensor<3x3x64x1xi8>, i32, i32) outs(%45 : tensor<1x16x16x64x1xi32>) -> tensor<1x16x16x64x1xi32>
    %collapsed_186 = tensor.collapse_shape %47 [[0], [1], [2], [3, 4]] : tensor<1x16x16x64x1xi32> into tensor<1x16x16x64xi32>
    %48 = linalg.generic {indexing_maps = [#map, #map1, #map1], iterator_types = ["parallel", "parallel", "parallel", "parallel"]} ins(%cst_162, %collapsed_186 : tensor<64xi32>, tensor<1x16x16x64xi32>) outs(%46 : tensor<1x16x16x64xi32>) {
    ^bb0(%in: i32, %in_282: i32, %out: i32):
      %348 = arith.addi %in, %in_282 : i32
      linalg.yield %348 : i32
    } -> tensor<1x16x16x64xi32>
    %49 = tensor.empty() : tensor<1x16x16x64xi8>
    %50 = linalg.generic {indexing_maps = [#map1, #map, #map, #map1], iterator_types = ["parallel", "parallel", "parallel", "parallel"]} ins(%48, %cst_70, %cst_69 : tensor<1x16x16x64xi32>, tensor<64xi32>, tensor<64xi8>) outs(%49 : tensor<1x16x16x64xi8>) {
    ^bb0(%in: i32, %in_282: i32, %in_283: i8, %out: i8):
      %348 = tosa.apply_scale %in, %in_282, %in_283 {rounding_mode = DOUBLE_ROUND} : (i32, i32, i8) -> i32
      %349 = arith.addi %348, %c-128_i32 : i32
      %350 = arith.maxsi %349, %c-128_i32 : i32
      %351 = arith.minsi %350, %c127_i32 : i32
      %352 = arith.trunci %351 : i32 to i8
      linalg.yield %352 : i8
    } -> tensor<1x16x16x64xi8>
    %collapsed_187 = tensor.collapse_shape %50 [[0, 1, 2], [3]] : tensor<1x16x16x64xi8> into tensor<256x64xi8>
    %51 = tensor.empty() : tensor<64x16xi8>
    %transposed_188 = linalg.transpose ins(%cst_108 : tensor<16x64xi8>) outs(%51 : tensor<64x16xi8>) permutation = [1, 0] 
    %52 = tensor.empty() : tensor<256x16xi32>
    %53 = linalg.generic {indexing_maps = [#map2, #map3], iterator_types = ["parallel", "parallel"]} ins(%cst_161 : tensor<16xi32>) outs(%52 : tensor<256x16xi32>) {
    ^bb0(%in: i32, %out: i32):
      linalg.yield %in : i32
    } -> tensor<256x16xi32>
    %54 = linalg.quantized_matmul ins(%collapsed_187, %transposed_188, %c-128_i32, %c0_i32 : tensor<256x64xi8>, tensor<64x16xi8>, i32, i32) outs(%53 : tensor<256x16xi32>) -> tensor<256x16xi32>
    %expanded_189 = tensor.expand_shape %54 [[0, 1, 2], [3]] output_shape [1, 16, 16, 16] : tensor<256x16xi32> into tensor<1x16x16x16xi32>
    %55 = tensor.empty() : tensor<1x16x16x16xi8>
    %56 = linalg.generic {indexing_maps = [#map1, #map, #map, #map1], iterator_types = ["parallel", "parallel", "parallel", "parallel"]} ins(%expanded_189, %cst_68, %cst_67 : tensor<1x16x16x16xi32>, tensor<16xi32>, tensor<16xi8>) outs(%55 : tensor<1x16x16x16xi8>) {
    ^bb0(%in: i32, %in_282: i32, %in_283: i8, %out: i8):
      %348 = tosa.apply_scale %in, %in_282, %in_283 {rounding_mode = DOUBLE_ROUND} : (i32, i32, i8) -> i32
      %349 = arith.addi %348, %c6_i32 : i32
      %350 = arith.maxsi %349, %c-128_i32 : i32
      %351 = arith.minsi %350, %c127_i32 : i32
      %352 = arith.trunci %351 : i32 to i8
      linalg.yield %352 : i8
    } -> tensor<1x16x16x16xi8>
    %57 = tensor.empty() : tensor<1x16x16x16xi32>
    %58 = linalg.generic {indexing_maps = [#map1, #map1], iterator_types = ["parallel", "parallel", "parallel", "parallel"]} ins(%56 : tensor<1x16x16x16xi8>) outs(%57 : tensor<1x16x16x16xi32>) {
    ^bb0(%in: i8, %out: i32):
      %348 = arith.extsi %in : i8 to i32
      %349 = arith.subi %348, %c6_i32 : i32
      %350 = tosa.apply_scale %349, %c1073741824_i32, %c10_i8 {rounding_mode = SINGLE_ROUND} : (i32, i32, i8) -> i32
      linalg.yield %350 : i32
    } -> tensor<1x16x16x16xi32>
    %59 = tensor.empty() : tensor<1x16x16x16xi32>
    %60 = linalg.generic {indexing_maps = [#map1, #map1], iterator_types = ["parallel", "parallel", "parallel", "parallel"]} ins(%58 : tensor<1x16x16x16xi32>) outs(%59 : tensor<1x16x16x16xi32>) {
    ^bb0(%in: i32, %out: i32):
      %348 = tosa.apply_scale %in, %c1785103811_i32, %c32_i8 {rounding_mode = DOUBLE_ROUND} : (i32, i32, i8) -> i32
      linalg.yield %348 : i32
    } -> tensor<1x16x16x16xi32>
    %61 = tensor.empty() : tensor<1x16x16x16xi32>
    %62 = linalg.generic {indexing_maps = [#map1, #map1], iterator_types = ["parallel", "parallel", "parallel", "parallel"]} ins(%37 : tensor<1x16x16x16xi8>) outs(%61 : tensor<1x16x16x16xi32>) {
    ^bb0(%in: i8, %out: i32):
      %348 = arith.extsi %in : i8 to i32
      %349 = arith.subi %348, %c-22_i32 : i32
      %350 = tosa.apply_scale %349, %c1073741824_i32, %c11_i8 {rounding_mode = SINGLE_ROUND} : (i32, i32, i8) -> i32
      linalg.yield %350 : i32
    } -> tensor<1x16x16x16xi32>
    %63 = tensor.empty() : tensor<1x16x16x16xi32>
    %64 = linalg.generic {indexing_maps = [#map4, #map4, #map1], iterator_types = ["parallel", "parallel", "parallel", "parallel"]} ins(%60, %62 : tensor<1x16x16x16xi32>, tensor<1x16x16x16xi32>) outs(%63 : tensor<1x16x16x16xi32>) {
    ^bb0(%in: i32, %in_282: i32, %out: i32):
      %348 = arith.addi %in, %in_282 : i32
      linalg.yield %348 : i32
    } -> tensor<1x16x16x16xi32>
    %65 = tensor.empty() : tensor<1x16x16x16xi8>
    %66 = linalg.generic {indexing_maps = [#map1, #map1], iterator_types = ["parallel", "parallel", "parallel", "parallel"]} ins(%64 : tensor<1x16x16x16xi32>) outs(%65 : tensor<1x16x16x16xi8>) {
    ^bb0(%in: i32, %out: i8):
      %348 = tosa.apply_scale %in, %c1938331585_i32, %c50_i8 {rounding_mode = DOUBLE_ROUND} : (i32, i32, i8) -> i32
      %349 = arith.addi %348, %c-7_i32 : i32
      %350 = arith.maxsi %349, %c-128_i32 : i32
      %351 = arith.minsi %350, %c127_i32 : i32
      %352 = arith.trunci %351 : i32 to i8
      linalg.yield %352 : i8
    } -> tensor<1x16x16x16xi8>
    %collapsed_190 = tensor.collapse_shape %66 [[0, 1, 2], [3]] : tensor<1x16x16x16xi8> into tensor<256x16xi8>
    %67 = tensor.empty() : tensor<16x80xi8>
    %transposed_191 = linalg.transpose ins(%cst_107 : tensor<80x16xi8>) outs(%67 : tensor<16x80xi8>) permutation = [1, 0] 
    %68 = tensor.empty() : tensor<256x80xi32>
    %69 = linalg.generic {indexing_maps = [#map2, #map3], iterator_types = ["parallel", "parallel"]} ins(%cst_160 : tensor<80xi32>) outs(%68 : tensor<256x80xi32>) {
    ^bb0(%in: i32, %out: i32):
      linalg.yield %in : i32
    } -> tensor<256x80xi32>
    %70 = linalg.quantized_matmul ins(%collapsed_190, %transposed_191, %c-7_i32, %c0_i32 : tensor<256x16xi8>, tensor<16x80xi8>, i32, i32) outs(%69 : tensor<256x80xi32>) -> tensor<256x80xi32>
    %expanded_192 = tensor.expand_shape %70 [[0, 1, 2], [3]] output_shape [1, 16, 16, 80] : tensor<256x80xi32> into tensor<1x16x16x80xi32>
    %71 = tensor.empty() : tensor<1x16x16x80xi8>
    %72 = linalg.generic {indexing_maps = [#map1, #map, #map, #map1], iterator_types = ["parallel", "parallel", "parallel", "parallel"]} ins(%expanded_192, %cst_66, %cst_65 : tensor<1x16x16x80xi32>, tensor<80xi32>, tensor<80xi8>) outs(%71 : tensor<1x16x16x80xi8>) {
    ^bb0(%in: i32, %in_282: i32, %in_283: i8, %out: i8):
      %348 = tosa.apply_scale %in, %in_282, %in_283 {rounding_mode = DOUBLE_ROUND} : (i32, i32, i8) -> i32
      %349 = arith.addi %348, %c-128_i32 : i32
      %350 = arith.maxsi %349, %c-128_i32 : i32
      %351 = arith.minsi %350, %c127_i32 : i32
      %352 = arith.trunci %351 : i32 to i8
      linalg.yield %352 : i8
    } -> tensor<1x16x16x80xi8>
    %padded_193 = tensor.pad %72 low[%c0, %c1, %c1, %c0] high[%c0, %c1, %c1, %c0] {
    ^bb0(%arg1: index, %arg2: index, %arg3: index, %arg4: index):
      tensor.yield %c-128_i8 : i8
    } : tensor<1x16x16x80xi8> to tensor<1x18x18x80xi8>
    %73 = tensor.empty() : tensor<1x8x8x80x1xi32>
    %74 = linalg.fill ins(%c0_i32 : i32) outs(%73 : tensor<1x8x8x80x1xi32>) -> tensor<1x8x8x80x1xi32>
    %75 = tensor.empty() : tensor<1x8x8x80xi32>
    %76 = linalg.depthwise_conv_2d_nhwc_hwcm_q {dilations = dense<1> : tensor<2xi64>, strides = dense<2> : tensor<2xi64>} ins(%padded_193, %cst_123, %c-128_i32, %c0_i32 : tensor<1x18x18x80xi8>, tensor<3x3x80x1xi8>, i32, i32) outs(%74 : tensor<1x8x8x80x1xi32>) -> tensor<1x8x8x80x1xi32>
    %collapsed_194 = tensor.collapse_shape %76 [[0], [1], [2], [3, 4]] : tensor<1x8x8x80x1xi32> into tensor<1x8x8x80xi32>
    %77 = linalg.generic {indexing_maps = [#map, #map1, #map1], iterator_types = ["parallel", "parallel", "parallel", "parallel"]} ins(%cst_159, %collapsed_194 : tensor<80xi32>, tensor<1x8x8x80xi32>) outs(%75 : tensor<1x8x8x80xi32>) {
    ^bb0(%in: i32, %in_282: i32, %out: i32):
      %348 = arith.addi %in, %in_282 : i32
      linalg.yield %348 : i32
    } -> tensor<1x8x8x80xi32>
    %78 = tensor.empty() : tensor<1x8x8x80xi8>
    %79 = linalg.generic {indexing_maps = [#map1, #map, #map, #map1], iterator_types = ["parallel", "parallel", "parallel", "parallel"]} ins(%77, %cst_64, %cst_63 : tensor<1x8x8x80xi32>, tensor<80xi32>, tensor<80xi8>) outs(%78 : tensor<1x8x8x80xi8>) {
    ^bb0(%in: i32, %in_282: i32, %in_283: i8, %out: i8):
      %348 = tosa.apply_scale %in, %in_282, %in_283 {rounding_mode = DOUBLE_ROUND} : (i32, i32, i8) -> i32
      %349 = arith.addi %348, %c-128_i32 : i32
      %350 = arith.maxsi %349, %c-128_i32 : i32
      %351 = arith.minsi %350, %c127_i32 : i32
      %352 = arith.trunci %351 : i32 to i8
      linalg.yield %352 : i8
    } -> tensor<1x8x8x80xi8>
    %collapsed_195 = tensor.collapse_shape %79 [[0, 1, 2], [3]] : tensor<1x8x8x80xi8> into tensor<64x80xi8>
    %80 = tensor.empty() : tensor<80x24xi8>
    %transposed_196 = linalg.transpose ins(%cst_106 : tensor<24x80xi8>) outs(%80 : tensor<80x24xi8>) permutation = [1, 0] 
    %81 = tensor.empty() : tensor<64x24xi32>
    %82 = linalg.generic {indexing_maps = [#map2, #map3], iterator_types = ["parallel", "parallel"]} ins(%cst_158 : tensor<24xi32>) outs(%81 : tensor<64x24xi32>) {
    ^bb0(%in: i32, %out: i32):
      linalg.yield %in : i32
    } -> tensor<64x24xi32>
    %83 = linalg.quantized_matmul ins(%collapsed_195, %transposed_196, %c-128_i32, %c0_i32 : tensor<64x80xi8>, tensor<80x24xi8>, i32, i32) outs(%82 : tensor<64x24xi32>) -> tensor<64x24xi32>
    %expanded_197 = tensor.expand_shape %83 [[0, 1, 2], [3]] output_shape [1, 8, 8, 24] : tensor<64x24xi32> into tensor<1x8x8x24xi32>
    %84 = tensor.empty() : tensor<1x8x8x24xi8>
    %85 = linalg.generic {indexing_maps = [#map1, #map, #map, #map1], iterator_types = ["parallel", "parallel", "parallel", "parallel"]} ins(%expanded_197, %cst_62, %cst_61 : tensor<1x8x8x24xi32>, tensor<24xi32>, tensor<24xi8>) outs(%84 : tensor<1x8x8x24xi8>) {
    ^bb0(%in: i32, %in_282: i32, %in_283: i8, %out: i8):
      %348 = tosa.apply_scale %in, %in_282, %in_283 {rounding_mode = DOUBLE_ROUND} : (i32, i32, i8) -> i32
      %349 = arith.addi %348, %c5_i32 : i32
      %350 = arith.maxsi %349, %c-128_i32 : i32
      %351 = arith.minsi %350, %c127_i32 : i32
      %352 = arith.trunci %351 : i32 to i8
      linalg.yield %352 : i8
    } -> tensor<1x8x8x24xi8>
    %collapsed_198 = tensor.collapse_shape %85 [[0, 1, 2], [3]] : tensor<1x8x8x24xi8> into tensor<64x24xi8>
    %86 = tensor.empty() : tensor<24x96xi8>
    %transposed_199 = linalg.transpose ins(%cst_105 : tensor<96x24xi8>) outs(%86 : tensor<24x96xi8>) permutation = [1, 0] 
    %87 = tensor.empty() : tensor<64x96xi32>
    %88 = linalg.generic {indexing_maps = [#map2, #map3], iterator_types = ["parallel", "parallel"]} ins(%cst_157 : tensor<96xi32>) outs(%87 : tensor<64x96xi32>) {
    ^bb0(%in: i32, %out: i32):
      linalg.yield %in : i32
    } -> tensor<64x96xi32>
    %89 = linalg.quantized_matmul ins(%collapsed_198, %transposed_199, %c5_i32, %c0_i32 : tensor<64x24xi8>, tensor<24x96xi8>, i32, i32) outs(%88 : tensor<64x96xi32>) -> tensor<64x96xi32>
    %expanded_200 = tensor.expand_shape %89 [[0, 1, 2], [3]] output_shape [1, 8, 8, 96] : tensor<64x96xi32> into tensor<1x8x8x96xi32>
    %90 = tensor.empty() : tensor<1x8x8x96xi8>
    %91 = linalg.generic {indexing_maps = [#map1, #map, #map, #map1], iterator_types = ["parallel", "parallel", "parallel", "parallel"]} ins(%expanded_200, %cst_60, %cst_59 : tensor<1x8x8x96xi32>, tensor<96xi32>, tensor<96xi8>) outs(%90 : tensor<1x8x8x96xi8>) {
    ^bb0(%in: i32, %in_282: i32, %in_283: i8, %out: i8):
      %348 = tosa.apply_scale %in, %in_282, %in_283 {rounding_mode = DOUBLE_ROUND} : (i32, i32, i8) -> i32
      %349 = arith.addi %348, %c-128_i32 : i32
      %350 = arith.maxsi %349, %c-128_i32 : i32
      %351 = arith.minsi %350, %c127_i32 : i32
      %352 = arith.trunci %351 : i32 to i8
      linalg.yield %352 : i8
    } -> tensor<1x8x8x96xi8>
    %padded_201 = tensor.pad %91 low[%c0, %c1, %c1, %c0] high[%c0, %c1, %c1, %c0] {
    ^bb0(%arg1: index, %arg2: index, %arg3: index, %arg4: index):
      tensor.yield %c-128_i8 : i8
    } : tensor<1x8x8x96xi8> to tensor<1x10x10x96xi8>
    %92 = tensor.empty() : tensor<1x8x8x96x1xi32>
    %93 = linalg.fill ins(%c0_i32 : i32) outs(%92 : tensor<1x8x8x96x1xi32>) -> tensor<1x8x8x96x1xi32>
    %94 = tensor.empty() : tensor<1x8x8x96xi32>
    %95 = linalg.depthwise_conv_2d_nhwc_hwcm_q {dilations = dense<1> : tensor<2xi64>, strides = dense<1> : tensor<2xi64>} ins(%padded_201, %cst_122, %c-128_i32, %c0_i32 : tensor<1x10x10x96xi8>, tensor<3x3x96x1xi8>, i32, i32) outs(%93 : tensor<1x8x8x96x1xi32>) -> tensor<1x8x8x96x1xi32>
    %collapsed_202 = tensor.collapse_shape %95 [[0], [1], [2], [3, 4]] : tensor<1x8x8x96x1xi32> into tensor<1x8x8x96xi32>
    %96 = linalg.generic {indexing_maps = [#map, #map1, #map1], iterator_types = ["parallel", "parallel", "parallel", "parallel"]} ins(%cst_156, %collapsed_202 : tensor<96xi32>, tensor<1x8x8x96xi32>) outs(%94 : tensor<1x8x8x96xi32>) {
    ^bb0(%in: i32, %in_282: i32, %out: i32):
      %348 = arith.addi %in, %in_282 : i32
      linalg.yield %348 : i32
    } -> tensor<1x8x8x96xi32>
    %97 = tensor.empty() : tensor<1x8x8x96xi8>
    %98 = linalg.generic {indexing_maps = [#map1, #map, #map, #map1], iterator_types = ["parallel", "parallel", "parallel", "parallel"]} ins(%96, %cst_58, %cst_57 : tensor<1x8x8x96xi32>, tensor<96xi32>, tensor<96xi8>) outs(%97 : tensor<1x8x8x96xi8>) {
    ^bb0(%in: i32, %in_282: i32, %in_283: i8, %out: i8):
      %348 = tosa.apply_scale %in, %in_282, %in_283 {rounding_mode = DOUBLE_ROUND} : (i32, i32, i8) -> i32
      %349 = arith.addi %348, %c-128_i32 : i32
      %350 = arith.maxsi %349, %c-128_i32 : i32
      %351 = arith.minsi %350, %c127_i32 : i32
      %352 = arith.trunci %351 : i32 to i8
      linalg.yield %352 : i8
    } -> tensor<1x8x8x96xi8>
    %collapsed_203 = tensor.collapse_shape %98 [[0, 1, 2], [3]] : tensor<1x8x8x96xi8> into tensor<64x96xi8>
    %99 = tensor.empty() : tensor<96x24xi8>
    %transposed_204 = linalg.transpose ins(%cst_104 : tensor<24x96xi8>) outs(%99 : tensor<96x24xi8>) permutation = [1, 0] 
    %100 = tensor.empty() : tensor<64x24xi32>
    %101 = linalg.generic {indexing_maps = [#map2, #map3], iterator_types = ["parallel", "parallel"]} ins(%cst_155 : tensor<24xi32>) outs(%100 : tensor<64x24xi32>) {
    ^bb0(%in: i32, %out: i32):
      linalg.yield %in : i32
    } -> tensor<64x24xi32>
    %102 = linalg.quantized_matmul ins(%collapsed_203, %transposed_204, %c-128_i32, %c0_i32 : tensor<64x96xi8>, tensor<96x24xi8>, i32, i32) outs(%101 : tensor<64x24xi32>) -> tensor<64x24xi32>
    %expanded_205 = tensor.expand_shape %102 [[0, 1, 2], [3]] output_shape [1, 8, 8, 24] : tensor<64x24xi32> into tensor<1x8x8x24xi32>
    %103 = tensor.empty() : tensor<1x8x8x24xi8>
    %104 = linalg.generic {indexing_maps = [#map1, #map, #map, #map1], iterator_types = ["parallel", "parallel", "parallel", "parallel"]} ins(%expanded_205, %cst_56, %cst_55 : tensor<1x8x8x24xi32>, tensor<24xi32>, tensor<24xi8>) outs(%103 : tensor<1x8x8x24xi8>) {
    ^bb0(%in: i32, %in_282: i32, %in_283: i8, %out: i8):
      %348 = tosa.apply_scale %in, %in_282, %in_283 {rounding_mode = DOUBLE_ROUND} : (i32, i32, i8) -> i32
      %349 = arith.addi %348, %c2_i32 : i32
      %350 = arith.maxsi %349, %c-128_i32 : i32
      %351 = arith.minsi %350, %c127_i32 : i32
      %352 = arith.trunci %351 : i32 to i8
      linalg.yield %352 : i8
    } -> tensor<1x8x8x24xi8>
    %105 = tensor.empty() : tensor<1x8x8x24xi32>
    %106 = linalg.generic {indexing_maps = [#map1, #map1], iterator_types = ["parallel", "parallel", "parallel", "parallel"]} ins(%104 : tensor<1x8x8x24xi8>) outs(%105 : tensor<1x8x8x24xi32>) {
    ^bb0(%in: i8, %out: i32):
      %348 = arith.extsi %in : i8 to i32
      %349 = arith.subi %348, %c2_i32 : i32
      %350 = tosa.apply_scale %349, %c1073741824_i32, %c10_i8 {rounding_mode = SINGLE_ROUND} : (i32, i32, i8) -> i32
      linalg.yield %350 : i32
    } -> tensor<1x8x8x24xi32>
    %107 = tensor.empty() : tensor<1x8x8x24xi32>
    %108 = linalg.generic {indexing_maps = [#map1, #map1], iterator_types = ["parallel", "parallel", "parallel", "parallel"]} ins(%106 : tensor<1x8x8x24xi32>) outs(%107 : tensor<1x8x8x24xi32>) {
    ^bb0(%in: i32, %out: i32):
      %348 = tosa.apply_scale %in, %c2086460944_i32, %c32_i8 {rounding_mode = DOUBLE_ROUND} : (i32, i32, i8) -> i32
      linalg.yield %348 : i32
    } -> tensor<1x8x8x24xi32>
    %109 = tensor.empty() : tensor<1x8x8x24xi32>
    %110 = linalg.generic {indexing_maps = [#map1, #map1], iterator_types = ["parallel", "parallel", "parallel", "parallel"]} ins(%85 : tensor<1x8x8x24xi8>) outs(%109 : tensor<1x8x8x24xi32>) {
    ^bb0(%in: i8, %out: i32):
      %348 = arith.extsi %in : i8 to i32
      %349 = arith.subi %348, %c5_i32 : i32
      %350 = tosa.apply_scale %349, %c1073741824_i32, %c11_i8 {rounding_mode = SINGLE_ROUND} : (i32, i32, i8) -> i32
      linalg.yield %350 : i32
    } -> tensor<1x8x8x24xi32>
    %111 = tensor.empty() : tensor<1x8x8x24xi32>
    %112 = linalg.generic {indexing_maps = [#map4, #map4, #map1], iterator_types = ["parallel", "parallel", "parallel", "parallel"]} ins(%108, %110 : tensor<1x8x8x24xi32>, tensor<1x8x8x24xi32>) outs(%111 : tensor<1x8x8x24xi32>) {
    ^bb0(%in: i32, %in_282: i32, %out: i32):
      %348 = arith.addi %in, %in_282 : i32
      linalg.yield %348 : i32
    } -> tensor<1x8x8x24xi32>
    %113 = tensor.empty() : tensor<1x8x8x24xi8>
    %114 = linalg.generic {indexing_maps = [#map1, #map1], iterator_types = ["parallel", "parallel", "parallel", "parallel"]} ins(%112 : tensor<1x8x8x24xi32>) outs(%113 : tensor<1x8x8x24xi8>) {
    ^bb0(%in: i32, %out: i8):
      %348 = tosa.apply_scale %in, %c1899219683_i32, %c50_i8 {rounding_mode = DOUBLE_ROUND} : (i32, i32, i8) -> i32
      %349 = arith.addi %348, %c1_i32 : i32
      %350 = arith.maxsi %349, %c-128_i32 : i32
      %351 = arith.minsi %350, %c127_i32 : i32
      %352 = arith.trunci %351 : i32 to i8
      linalg.yield %352 : i8
    } -> tensor<1x8x8x24xi8>
    %collapsed_206 = tensor.collapse_shape %114 [[0, 1, 2], [3]] : tensor<1x8x8x24xi8> into tensor<64x24xi8>
    %115 = tensor.empty() : tensor<24x96xi8>
    %transposed_207 = linalg.transpose ins(%cst_103 : tensor<96x24xi8>) outs(%115 : tensor<24x96xi8>) permutation = [1, 0] 
    %116 = tensor.empty() : tensor<64x96xi32>
    %117 = linalg.generic {indexing_maps = [#map2, #map3], iterator_types = ["parallel", "parallel"]} ins(%cst_154 : tensor<96xi32>) outs(%116 : tensor<64x96xi32>) {
    ^bb0(%in: i32, %out: i32):
      linalg.yield %in : i32
    } -> tensor<64x96xi32>
    %118 = linalg.quantized_matmul ins(%collapsed_206, %transposed_207, %c1_i32, %c0_i32 : tensor<64x24xi8>, tensor<24x96xi8>, i32, i32) outs(%117 : tensor<64x96xi32>) -> tensor<64x96xi32>
    %expanded_208 = tensor.expand_shape %118 [[0, 1, 2], [3]] output_shape [1, 8, 8, 96] : tensor<64x96xi32> into tensor<1x8x8x96xi32>
    %119 = tensor.empty() : tensor<1x8x8x96xi8>
    %120 = linalg.generic {indexing_maps = [#map1, #map, #map, #map1], iterator_types = ["parallel", "parallel", "parallel", "parallel"]} ins(%expanded_208, %cst_54, %cst_53 : tensor<1x8x8x96xi32>, tensor<96xi32>, tensor<96xi8>) outs(%119 : tensor<1x8x8x96xi8>) {
    ^bb0(%in: i32, %in_282: i32, %in_283: i8, %out: i8):
      %348 = tosa.apply_scale %in, %in_282, %in_283 {rounding_mode = DOUBLE_ROUND} : (i32, i32, i8) -> i32
      %349 = arith.addi %348, %c-128_i32 : i32
      %350 = arith.maxsi %349, %c-128_i32 : i32
      %351 = arith.minsi %350, %c127_i32 : i32
      %352 = arith.trunci %351 : i32 to i8
      linalg.yield %352 : i8
    } -> tensor<1x8x8x96xi8>
    %padded_209 = tensor.pad %120 low[%c0, %c1, %c1, %c0] high[%c0, %c1, %c1, %c0] {
    ^bb0(%arg1: index, %arg2: index, %arg3: index, %arg4: index):
      tensor.yield %c-128_i8 : i8
    } : tensor<1x8x8x96xi8> to tensor<1x10x10x96xi8>
    %121 = tensor.empty() : tensor<1x8x8x96x1xi32>
    %122 = linalg.fill ins(%c0_i32 : i32) outs(%121 : tensor<1x8x8x96x1xi32>) -> tensor<1x8x8x96x1xi32>
    %123 = tensor.empty() : tensor<1x8x8x96xi32>
    %124 = linalg.depthwise_conv_2d_nhwc_hwcm_q {dilations = dense<1> : tensor<2xi64>, strides = dense<1> : tensor<2xi64>} ins(%padded_209, %cst_121, %c-128_i32, %c0_i32 : tensor<1x10x10x96xi8>, tensor<3x3x96x1xi8>, i32, i32) outs(%122 : tensor<1x8x8x96x1xi32>) -> tensor<1x8x8x96x1xi32>
    %collapsed_210 = tensor.collapse_shape %124 [[0], [1], [2], [3, 4]] : tensor<1x8x8x96x1xi32> into tensor<1x8x8x96xi32>
    %125 = linalg.generic {indexing_maps = [#map, #map1, #map1], iterator_types = ["parallel", "parallel", "parallel", "parallel"]} ins(%cst_153, %collapsed_210 : tensor<96xi32>, tensor<1x8x8x96xi32>) outs(%123 : tensor<1x8x8x96xi32>) {
    ^bb0(%in: i32, %in_282: i32, %out: i32):
      %348 = arith.addi %in, %in_282 : i32
      linalg.yield %348 : i32
    } -> tensor<1x8x8x96xi32>
    %126 = tensor.empty() : tensor<1x8x8x96xi8>
    %127 = linalg.generic {indexing_maps = [#map1, #map, #map, #map1], iterator_types = ["parallel", "parallel", "parallel", "parallel"]} ins(%125, %cst_52, %cst_51 : tensor<1x8x8x96xi32>, tensor<96xi32>, tensor<96xi8>) outs(%126 : tensor<1x8x8x96xi8>) {
    ^bb0(%in: i32, %in_282: i32, %in_283: i8, %out: i8):
      %348 = tosa.apply_scale %in, %in_282, %in_283 {rounding_mode = DOUBLE_ROUND} : (i32, i32, i8) -> i32
      %349 = arith.addi %348, %c-128_i32 : i32
      %350 = arith.maxsi %349, %c-128_i32 : i32
      %351 = arith.minsi %350, %c127_i32 : i32
      %352 = arith.trunci %351 : i32 to i8
      linalg.yield %352 : i8
    } -> tensor<1x8x8x96xi8>
    %collapsed_211 = tensor.collapse_shape %127 [[0, 1, 2], [3]] : tensor<1x8x8x96xi8> into tensor<64x96xi8>
    %128 = tensor.empty() : tensor<96x24xi8>
    %transposed_212 = linalg.transpose ins(%cst_102 : tensor<24x96xi8>) outs(%128 : tensor<96x24xi8>) permutation = [1, 0] 
    %129 = tensor.empty() : tensor<64x24xi32>
    %130 = linalg.generic {indexing_maps = [#map2, #map3], iterator_types = ["parallel", "parallel"]} ins(%cst_152 : tensor<24xi32>) outs(%129 : tensor<64x24xi32>) {
    ^bb0(%in: i32, %out: i32):
      linalg.yield %in : i32
    } -> tensor<64x24xi32>
    %131 = linalg.quantized_matmul ins(%collapsed_211, %transposed_212, %c-128_i32, %c0_i32 : tensor<64x96xi8>, tensor<96x24xi8>, i32, i32) outs(%130 : tensor<64x24xi32>) -> tensor<64x24xi32>
    %expanded_213 = tensor.expand_shape %131 [[0, 1, 2], [3]] output_shape [1, 8, 8, 24] : tensor<64x24xi32> into tensor<1x8x8x24xi32>
    %132 = tensor.empty() : tensor<1x8x8x24xi8>
    %133 = linalg.generic {indexing_maps = [#map1, #map, #map, #map1], iterator_types = ["parallel", "parallel", "parallel", "parallel"]} ins(%expanded_213, %cst_50, %cst_49 : tensor<1x8x8x24xi32>, tensor<24xi32>, tensor<24xi8>) outs(%132 : tensor<1x8x8x24xi8>) {
    ^bb0(%in: i32, %in_282: i32, %in_283: i8, %out: i8):
      %348 = tosa.apply_scale %in, %in_282, %in_283 {rounding_mode = DOUBLE_ROUND} : (i32, i32, i8) -> i32
      %349 = arith.addi %348, %c-6_i32 : i32
      %350 = arith.maxsi %349, %c-128_i32 : i32
      %351 = arith.minsi %350, %c127_i32 : i32
      %352 = arith.trunci %351 : i32 to i8
      linalg.yield %352 : i8
    } -> tensor<1x8x8x24xi8>
    %134 = tensor.empty() : tensor<1x8x8x24xi32>
    %135 = linalg.generic {indexing_maps = [#map1, #map1], iterator_types = ["parallel", "parallel", "parallel", "parallel"]} ins(%133 : tensor<1x8x8x24xi8>) outs(%134 : tensor<1x8x8x24xi32>) {
    ^bb0(%in: i8, %out: i32):
      %348 = arith.extsi %in : i8 to i32
      %349 = arith.subi %348, %c-6_i32 : i32
      %350 = tosa.apply_scale %349, %c1073741824_i32, %c10_i8 {rounding_mode = SINGLE_ROUND} : (i32, i32, i8) -> i32
      linalg.yield %350 : i32
    } -> tensor<1x8x8x24xi32>
    %136 = tensor.empty() : tensor<1x8x8x24xi32>
    %137 = linalg.generic {indexing_maps = [#map1, #map1], iterator_types = ["parallel", "parallel", "parallel", "parallel"]} ins(%135 : tensor<1x8x8x24xi32>) outs(%136 : tensor<1x8x8x24xi32>) {
    ^bb0(%in: i32, %out: i32):
      %348 = tosa.apply_scale %in, %c1765608801_i32, %c33_i8 {rounding_mode = DOUBLE_ROUND} : (i32, i32, i8) -> i32
      linalg.yield %348 : i32
    } -> tensor<1x8x8x24xi32>
    %138 = tensor.empty() : tensor<1x8x8x24xi32>
    %139 = linalg.generic {indexing_maps = [#map1, #map1], iterator_types = ["parallel", "parallel", "parallel", "parallel"]} ins(%114 : tensor<1x8x8x24xi8>) outs(%138 : tensor<1x8x8x24xi32>) {
    ^bb0(%in: i8, %out: i32):
      %348 = arith.extsi %in : i8 to i32
      %349 = arith.subi %348, %c1_i32 : i32
      %350 = tosa.apply_scale %349, %c1073741824_i32, %c11_i8 {rounding_mode = SINGLE_ROUND} : (i32, i32, i8) -> i32
      linalg.yield %350 : i32
    } -> tensor<1x8x8x24xi32>
    %140 = tensor.empty() : tensor<1x8x8x24xi32>
    %141 = linalg.generic {indexing_maps = [#map4, #map4, #map1], iterator_types = ["parallel", "parallel", "parallel", "parallel"]} ins(%137, %139 : tensor<1x8x8x24xi32>, tensor<1x8x8x24xi32>) outs(%140 : tensor<1x8x8x24xi32>) {
    ^bb0(%in: i32, %in_282: i32, %out: i32):
      %348 = arith.addi %in, %in_282 : i32
      linalg.yield %348 : i32
    } -> tensor<1x8x8x24xi32>
    %142 = tensor.empty() : tensor<1x8x8x24xi8>
    %143 = linalg.generic {indexing_maps = [#map1, #map1], iterator_types = ["parallel", "parallel", "parallel", "parallel"]} ins(%141 : tensor<1x8x8x24xi32>) outs(%142 : tensor<1x8x8x24xi8>) {
    ^bb0(%in: i32, %out: i8):
      %348 = tosa.apply_scale %in, %c1980469084_i32, %c50_i8 {rounding_mode = DOUBLE_ROUND} : (i32, i32, i8) -> i32
      %349 = arith.addi %348, %c7_i32 : i32
      %350 = arith.maxsi %349, %c-128_i32 : i32
      %351 = arith.minsi %350, %c127_i32 : i32
      %352 = arith.trunci %351 : i32 to i8
      linalg.yield %352 : i8
    } -> tensor<1x8x8x24xi8>
    %collapsed_214 = tensor.collapse_shape %143 [[0, 1, 2], [3]] : tensor<1x8x8x24xi8> into tensor<64x24xi8>
    %144 = tensor.empty() : tensor<24x120xi8>
    %transposed_215 = linalg.transpose ins(%cst_101 : tensor<120x24xi8>) outs(%144 : tensor<24x120xi8>) permutation = [1, 0] 
    %145 = tensor.empty() : tensor<64x120xi32>
    %146 = linalg.generic {indexing_maps = [#map2, #map3], iterator_types = ["parallel", "parallel"]} ins(%cst_151 : tensor<120xi32>) outs(%145 : tensor<64x120xi32>) {
    ^bb0(%in: i32, %out: i32):
      linalg.yield %in : i32
    } -> tensor<64x120xi32>
    %147 = linalg.quantized_matmul ins(%collapsed_214, %transposed_215, %c7_i32, %c0_i32 : tensor<64x24xi8>, tensor<24x120xi8>, i32, i32) outs(%146 : tensor<64x120xi32>) -> tensor<64x120xi32>
    %expanded_216 = tensor.expand_shape %147 [[0, 1, 2], [3]] output_shape [1, 8, 8, 120] : tensor<64x120xi32> into tensor<1x8x8x120xi32>
    %148 = tensor.empty() : tensor<1x8x8x120xi8>
    %149 = linalg.generic {indexing_maps = [#map1, #map, #map, #map1], iterator_types = ["parallel", "parallel", "parallel", "parallel"]} ins(%expanded_216, %cst_48, %cst_47 : tensor<1x8x8x120xi32>, tensor<120xi32>, tensor<120xi8>) outs(%148 : tensor<1x8x8x120xi8>) {
    ^bb0(%in: i32, %in_282: i32, %in_283: i8, %out: i8):
      %348 = tosa.apply_scale %in, %in_282, %in_283 {rounding_mode = DOUBLE_ROUND} : (i32, i32, i8) -> i32
      %349 = arith.addi %348, %c-128_i32 : i32
      %350 = arith.maxsi %349, %c-128_i32 : i32
      %351 = arith.minsi %350, %c127_i32 : i32
      %352 = arith.trunci %351 : i32 to i8
      linalg.yield %352 : i8
    } -> tensor<1x8x8x120xi8>
    %padded_217 = tensor.pad %149 low[%c0, %c1, %c1, %c0] high[%c0, %c1, %c1, %c0] {
    ^bb0(%arg1: index, %arg2: index, %arg3: index, %arg4: index):
      tensor.yield %c-128_i8 : i8
    } : tensor<1x8x8x120xi8> to tensor<1x10x10x120xi8>
    %150 = tensor.empty() : tensor<1x4x4x120x1xi32>
    %151 = linalg.fill ins(%c0_i32 : i32) outs(%150 : tensor<1x4x4x120x1xi32>) -> tensor<1x4x4x120x1xi32>
    %152 = tensor.empty() : tensor<1x4x4x120xi32>
    %153 = linalg.depthwise_conv_2d_nhwc_hwcm_q {dilations = dense<1> : tensor<2xi64>, strides = dense<2> : tensor<2xi64>} ins(%padded_217, %cst_120, %c-128_i32, %c0_i32 : tensor<1x10x10x120xi8>, tensor<3x3x120x1xi8>, i32, i32) outs(%151 : tensor<1x4x4x120x1xi32>) -> tensor<1x4x4x120x1xi32>
    %collapsed_218 = tensor.collapse_shape %153 [[0], [1], [2], [3, 4]] : tensor<1x4x4x120x1xi32> into tensor<1x4x4x120xi32>
    %154 = linalg.generic {indexing_maps = [#map, #map1, #map1], iterator_types = ["parallel", "parallel", "parallel", "parallel"]} ins(%cst_150, %collapsed_218 : tensor<120xi32>, tensor<1x4x4x120xi32>) outs(%152 : tensor<1x4x4x120xi32>) {
    ^bb0(%in: i32, %in_282: i32, %out: i32):
      %348 = arith.addi %in, %in_282 : i32
      linalg.yield %348 : i32
    } -> tensor<1x4x4x120xi32>
    %155 = tensor.empty() : tensor<1x4x4x120xi8>
    %156 = linalg.generic {indexing_maps = [#map1, #map, #map, #map1], iterator_types = ["parallel", "parallel", "parallel", "parallel"]} ins(%154, %cst_46, %cst_45 : tensor<1x4x4x120xi32>, tensor<120xi32>, tensor<120xi8>) outs(%155 : tensor<1x4x4x120xi8>) {
    ^bb0(%in: i32, %in_282: i32, %in_283: i8, %out: i8):
      %348 = tosa.apply_scale %in, %in_282, %in_283 {rounding_mode = DOUBLE_ROUND} : (i32, i32, i8) -> i32
      %349 = arith.addi %348, %c-128_i32 : i32
      %350 = arith.maxsi %349, %c-128_i32 : i32
      %351 = arith.minsi %350, %c127_i32 : i32
      %352 = arith.trunci %351 : i32 to i8
      linalg.yield %352 : i8
    } -> tensor<1x4x4x120xi8>
    %collapsed_219 = tensor.collapse_shape %156 [[0, 1, 2], [3]] : tensor<1x4x4x120xi8> into tensor<16x120xi8>
    %157 = tensor.empty() : tensor<120x40xi8>
    %transposed_220 = linalg.transpose ins(%cst_100 : tensor<40x120xi8>) outs(%157 : tensor<120x40xi8>) permutation = [1, 0] 
    %158 = tensor.empty() : tensor<16x40xi32>
    %159 = linalg.generic {indexing_maps = [#map2, #map3], iterator_types = ["parallel", "parallel"]} ins(%cst_149 : tensor<40xi32>) outs(%158 : tensor<16x40xi32>) {
    ^bb0(%in: i32, %out: i32):
      linalg.yield %in : i32
    } -> tensor<16x40xi32>
    %160 = linalg.quantized_matmul ins(%collapsed_219, %transposed_220, %c-128_i32, %c0_i32 : tensor<16x120xi8>, tensor<120x40xi8>, i32, i32) outs(%159 : tensor<16x40xi32>) -> tensor<16x40xi32>
    %expanded_221 = tensor.expand_shape %160 [[0, 1, 2], [3]] output_shape [1, 4, 4, 40] : tensor<16x40xi32> into tensor<1x4x4x40xi32>
    %161 = tensor.empty() : tensor<1x4x4x40xi8>
    %162 = linalg.generic {indexing_maps = [#map1, #map, #map, #map1], iterator_types = ["parallel", "parallel", "parallel", "parallel"]} ins(%expanded_221, %cst_44, %cst_43 : tensor<1x4x4x40xi32>, tensor<40xi32>, tensor<40xi8>) outs(%161 : tensor<1x4x4x40xi8>) {
    ^bb0(%in: i32, %in_282: i32, %in_283: i8, %out: i8):
      %348 = tosa.apply_scale %in, %in_282, %in_283 {rounding_mode = DOUBLE_ROUND} : (i32, i32, i8) -> i32
      %349 = arith.addi %348, %c-18_i32 : i32
      %350 = arith.maxsi %349, %c-128_i32 : i32
      %351 = arith.minsi %350, %c127_i32 : i32
      %352 = arith.trunci %351 : i32 to i8
      linalg.yield %352 : i8
    } -> tensor<1x4x4x40xi8>
    %collapsed_222 = tensor.collapse_shape %162 [[0, 1, 2], [3]] : tensor<1x4x4x40xi8> into tensor<16x40xi8>
    %163 = tensor.empty() : tensor<40x160xi8>
    %transposed_223 = linalg.transpose ins(%cst_99 : tensor<160x40xi8>) outs(%163 : tensor<40x160xi8>) permutation = [1, 0] 
    %164 = tensor.empty() : tensor<16x160xi32>
    %165 = linalg.generic {indexing_maps = [#map2, #map3], iterator_types = ["parallel", "parallel"]} ins(%cst_148 : tensor<160xi32>) outs(%164 : tensor<16x160xi32>) {
    ^bb0(%in: i32, %out: i32):
      linalg.yield %in : i32
    } -> tensor<16x160xi32>
    %166 = linalg.quantized_matmul ins(%collapsed_222, %transposed_223, %c-18_i32, %c0_i32 : tensor<16x40xi8>, tensor<40x160xi8>, i32, i32) outs(%165 : tensor<16x160xi32>) -> tensor<16x160xi32>
    %expanded_224 = tensor.expand_shape %166 [[0, 1, 2], [3]] output_shape [1, 4, 4, 160] : tensor<16x160xi32> into tensor<1x4x4x160xi32>
    %167 = tensor.empty() : tensor<1x4x4x160xi8>
    %168 = linalg.generic {indexing_maps = [#map1, #map, #map, #map1], iterator_types = ["parallel", "parallel", "parallel", "parallel"]} ins(%expanded_224, %cst_42, %cst_41 : tensor<1x4x4x160xi32>, tensor<160xi32>, tensor<160xi8>) outs(%167 : tensor<1x4x4x160xi8>) {
    ^bb0(%in: i32, %in_282: i32, %in_283: i8, %out: i8):
      %348 = tosa.apply_scale %in, %in_282, %in_283 {rounding_mode = DOUBLE_ROUND} : (i32, i32, i8) -> i32
      %349 = arith.addi %348, %c-128_i32 : i32
      %350 = arith.maxsi %349, %c-128_i32 : i32
      %351 = arith.minsi %350, %c127_i32 : i32
      %352 = arith.trunci %351 : i32 to i8
      linalg.yield %352 : i8
    } -> tensor<1x4x4x160xi8>
    %padded_225 = tensor.pad %168 low[%c0, %c1, %c1, %c0] high[%c0, %c1, %c1, %c0] {
    ^bb0(%arg1: index, %arg2: index, %arg3: index, %arg4: index):
      tensor.yield %c-128_i8 : i8
    } : tensor<1x4x4x160xi8> to tensor<1x6x6x160xi8>
    %169 = tensor.empty() : tensor<1x4x4x160x1xi32>
    %170 = linalg.fill ins(%c0_i32 : i32) outs(%169 : tensor<1x4x4x160x1xi32>) -> tensor<1x4x4x160x1xi32>
    %171 = tensor.empty() : tensor<1x4x4x160xi32>
    %172 = linalg.depthwise_conv_2d_nhwc_hwcm_q {dilations = dense<1> : tensor<2xi64>, strides = dense<1> : tensor<2xi64>} ins(%padded_225, %cst_119, %c-128_i32, %c0_i32 : tensor<1x6x6x160xi8>, tensor<3x3x160x1xi8>, i32, i32) outs(%170 : tensor<1x4x4x160x1xi32>) -> tensor<1x4x4x160x1xi32>
    %collapsed_226 = tensor.collapse_shape %172 [[0], [1], [2], [3, 4]] : tensor<1x4x4x160x1xi32> into tensor<1x4x4x160xi32>
    %173 = linalg.generic {indexing_maps = [#map, #map1, #map1], iterator_types = ["parallel", "parallel", "parallel", "parallel"]} ins(%cst_147, %collapsed_226 : tensor<160xi32>, tensor<1x4x4x160xi32>) outs(%171 : tensor<1x4x4x160xi32>) {
    ^bb0(%in: i32, %in_282: i32, %out: i32):
      %348 = arith.addi %in, %in_282 : i32
      linalg.yield %348 : i32
    } -> tensor<1x4x4x160xi32>
    %174 = tensor.empty() : tensor<1x4x4x160xi8>
    %175 = linalg.generic {indexing_maps = [#map1, #map, #map, #map1], iterator_types = ["parallel", "parallel", "parallel", "parallel"]} ins(%173, %cst_40, %cst_39 : tensor<1x4x4x160xi32>, tensor<160xi32>, tensor<160xi8>) outs(%174 : tensor<1x4x4x160xi8>) {
    ^bb0(%in: i32, %in_282: i32, %in_283: i8, %out: i8):
      %348 = tosa.apply_scale %in, %in_282, %in_283 {rounding_mode = DOUBLE_ROUND} : (i32, i32, i8) -> i32
      %349 = arith.addi %348, %c-128_i32 : i32
      %350 = arith.maxsi %349, %c-128_i32 : i32
      %351 = arith.minsi %350, %c127_i32 : i32
      %352 = arith.trunci %351 : i32 to i8
      linalg.yield %352 : i8
    } -> tensor<1x4x4x160xi8>
    %collapsed_227 = tensor.collapse_shape %175 [[0, 1, 2], [3]] : tensor<1x4x4x160xi8> into tensor<16x160xi8>
    %176 = tensor.empty() : tensor<160x40xi8>
    %transposed_228 = linalg.transpose ins(%cst_98 : tensor<40x160xi8>) outs(%176 : tensor<160x40xi8>) permutation = [1, 0] 
    %177 = tensor.empty() : tensor<16x40xi32>
    %178 = linalg.generic {indexing_maps = [#map2, #map3], iterator_types = ["parallel", "parallel"]} ins(%cst_146 : tensor<40xi32>) outs(%177 : tensor<16x40xi32>) {
    ^bb0(%in: i32, %out: i32):
      linalg.yield %in : i32
    } -> tensor<16x40xi32>
    %179 = linalg.quantized_matmul ins(%collapsed_227, %transposed_228, %c-128_i32, %c0_i32 : tensor<16x160xi8>, tensor<160x40xi8>, i32, i32) outs(%178 : tensor<16x40xi32>) -> tensor<16x40xi32>
    %expanded_229 = tensor.expand_shape %179 [[0, 1, 2], [3]] output_shape [1, 4, 4, 40] : tensor<16x40xi32> into tensor<1x4x4x40xi32>
    %180 = tensor.empty() : tensor<1x4x4x40xi8>
    %181 = linalg.generic {indexing_maps = [#map1, #map, #map, #map1], iterator_types = ["parallel", "parallel", "parallel", "parallel"]} ins(%expanded_229, %cst_38, %cst_37 : tensor<1x4x4x40xi32>, tensor<40xi32>, tensor<40xi8>) outs(%180 : tensor<1x4x4x40xi8>) {
    ^bb0(%in: i32, %in_282: i32, %in_283: i8, %out: i8):
      %348 = tosa.apply_scale %in, %in_282, %in_283 {rounding_mode = DOUBLE_ROUND} : (i32, i32, i8) -> i32
      %349 = arith.addi %348, %c-8_i32 : i32
      %350 = arith.maxsi %349, %c-128_i32 : i32
      %351 = arith.minsi %350, %c127_i32 : i32
      %352 = arith.trunci %351 : i32 to i8
      linalg.yield %352 : i8
    } -> tensor<1x4x4x40xi8>
    %182 = tensor.empty() : tensor<1x4x4x40xi32>
    %183 = linalg.generic {indexing_maps = [#map1, #map1], iterator_types = ["parallel", "parallel", "parallel", "parallel"]} ins(%181 : tensor<1x4x4x40xi8>) outs(%182 : tensor<1x4x4x40xi32>) {
    ^bb0(%in: i8, %out: i32):
      %348 = arith.extsi %in : i8 to i32
      %349 = arith.subi %348, %c-8_i32 : i32
      %350 = tosa.apply_scale %349, %c1073741824_i32, %c10_i8 {rounding_mode = SINGLE_ROUND} : (i32, i32, i8) -> i32
      linalg.yield %350 : i32
    } -> tensor<1x4x4x40xi32>
    %184 = tensor.empty() : tensor<1x4x4x40xi32>
    %185 = linalg.generic {indexing_maps = [#map1, #map1], iterator_types = ["parallel", "parallel", "parallel", "parallel"]} ins(%183 : tensor<1x4x4x40xi32>) outs(%184 : tensor<1x4x4x40xi32>) {
    ^bb0(%in: i32, %out: i32):
      %348 = tosa.apply_scale %in, %c1825212155_i32, %c32_i8 {rounding_mode = DOUBLE_ROUND} : (i32, i32, i8) -> i32
      linalg.yield %348 : i32
    } -> tensor<1x4x4x40xi32>
    %186 = tensor.empty() : tensor<1x4x4x40xi32>
    %187 = linalg.generic {indexing_maps = [#map1, #map1], iterator_types = ["parallel", "parallel", "parallel", "parallel"]} ins(%162 : tensor<1x4x4x40xi8>) outs(%186 : tensor<1x4x4x40xi32>) {
    ^bb0(%in: i8, %out: i32):
      %348 = arith.extsi %in : i8 to i32
      %349 = arith.subi %348, %c-18_i32 : i32
      %350 = tosa.apply_scale %349, %c1073741824_i32, %c11_i8 {rounding_mode = SINGLE_ROUND} : (i32, i32, i8) -> i32
      linalg.yield %350 : i32
    } -> tensor<1x4x4x40xi32>
    %188 = tensor.empty() : tensor<1x4x4x40xi32>
    %189 = linalg.generic {indexing_maps = [#map4, #map4, #map1], iterator_types = ["parallel", "parallel", "parallel", "parallel"]} ins(%185, %187 : tensor<1x4x4x40xi32>, tensor<1x4x4x40xi32>) outs(%188 : tensor<1x4x4x40xi32>) {
    ^bb0(%in: i32, %in_282: i32, %out: i32):
      %348 = arith.addi %in, %in_282 : i32
      linalg.yield %348 : i32
    } -> tensor<1x4x4x40xi32>
    %190 = tensor.empty() : tensor<1x4x4x40xi8>
    %191 = linalg.generic {indexing_maps = [#map1, #map1], iterator_types = ["parallel", "parallel", "parallel", "parallel"]} ins(%189 : tensor<1x4x4x40xi32>) outs(%190 : tensor<1x4x4x40xi8>) {
    ^bb0(%in: i32, %out: i8):
      %348 = tosa.apply_scale %in, %c1942687389_i32, %c50_i8 {rounding_mode = DOUBLE_ROUND} : (i32, i32, i8) -> i32
      %349 = arith.addi %348, %c-9_i32 : i32
      %350 = arith.maxsi %349, %c-128_i32 : i32
      %351 = arith.minsi %350, %c127_i32 : i32
      %352 = arith.trunci %351 : i32 to i8
      linalg.yield %352 : i8
    } -> tensor<1x4x4x40xi8>
    %collapsed_230 = tensor.collapse_shape %191 [[0, 1, 2], [3]] : tensor<1x4x4x40xi8> into tensor<16x40xi8>
    %192 = tensor.empty() : tensor<40x120xi8>
    %transposed_231 = linalg.transpose ins(%cst_97 : tensor<120x40xi8>) outs(%192 : tensor<40x120xi8>) permutation = [1, 0] 
    %193 = tensor.empty() : tensor<16x120xi32>
    %194 = linalg.generic {indexing_maps = [#map2, #map3], iterator_types = ["parallel", "parallel"]} ins(%cst_145 : tensor<120xi32>) outs(%193 : tensor<16x120xi32>) {
    ^bb0(%in: i32, %out: i32):
      linalg.yield %in : i32
    } -> tensor<16x120xi32>
    %195 = linalg.quantized_matmul ins(%collapsed_230, %transposed_231, %c-9_i32, %c0_i32 : tensor<16x40xi8>, tensor<40x120xi8>, i32, i32) outs(%194 : tensor<16x120xi32>) -> tensor<16x120xi32>
    %expanded_232 = tensor.expand_shape %195 [[0, 1, 2], [3]] output_shape [1, 4, 4, 120] : tensor<16x120xi32> into tensor<1x4x4x120xi32>
    %196 = tensor.empty() : tensor<1x4x4x120xi8>
    %197 = linalg.generic {indexing_maps = [#map1, #map, #map, #map1], iterator_types = ["parallel", "parallel", "parallel", "parallel"]} ins(%expanded_232, %cst_36, %cst_35 : tensor<1x4x4x120xi32>, tensor<120xi32>, tensor<120xi8>) outs(%196 : tensor<1x4x4x120xi8>) {
    ^bb0(%in: i32, %in_282: i32, %in_283: i8, %out: i8):
      %348 = tosa.apply_scale %in, %in_282, %in_283 {rounding_mode = DOUBLE_ROUND} : (i32, i32, i8) -> i32
      %349 = arith.addi %348, %c-128_i32 : i32
      %350 = arith.maxsi %349, %c-128_i32 : i32
      %351 = arith.minsi %350, %c127_i32 : i32
      %352 = arith.trunci %351 : i32 to i8
      linalg.yield %352 : i8
    } -> tensor<1x4x4x120xi8>
    %padded_233 = tensor.pad %197 low[%c0, %c3, %c3, %c0] high[%c0, %c3, %c3, %c0] {
    ^bb0(%arg1: index, %arg2: index, %arg3: index, %arg4: index):
      tensor.yield %c-128_i8 : i8
    } : tensor<1x4x4x120xi8> to tensor<1x10x10x120xi8>
    %198 = tensor.empty() : tensor<1x4x4x120x1xi32>
    %199 = linalg.fill ins(%c0_i32 : i32) outs(%198 : tensor<1x4x4x120x1xi32>) -> tensor<1x4x4x120x1xi32>
    %200 = tensor.empty() : tensor<1x4x4x120xi32>
    %201 = linalg.depthwise_conv_2d_nhwc_hwcm_q {dilations = dense<1> : tensor<2xi64>, strides = dense<1> : tensor<2xi64>} ins(%padded_233, %cst_118, %c-128_i32, %c0_i32 : tensor<1x10x10x120xi8>, tensor<7x7x120x1xi8>, i32, i32) outs(%199 : tensor<1x4x4x120x1xi32>) -> tensor<1x4x4x120x1xi32>
    %collapsed_234 = tensor.collapse_shape %201 [[0], [1], [2], [3, 4]] : tensor<1x4x4x120x1xi32> into tensor<1x4x4x120xi32>
    %202 = linalg.generic {indexing_maps = [#map, #map1, #map1], iterator_types = ["parallel", "parallel", "parallel", "parallel"]} ins(%cst_144, %collapsed_234 : tensor<120xi32>, tensor<1x4x4x120xi32>) outs(%200 : tensor<1x4x4x120xi32>) {
    ^bb0(%in: i32, %in_282: i32, %out: i32):
      %348 = arith.addi %in, %in_282 : i32
      linalg.yield %348 : i32
    } -> tensor<1x4x4x120xi32>
    %203 = tensor.empty() : tensor<1x4x4x120xi8>
    %204 = linalg.generic {indexing_maps = [#map1, #map, #map, #map1], iterator_types = ["parallel", "parallel", "parallel", "parallel"]} ins(%202, %cst_34, %cst_33 : tensor<1x4x4x120xi32>, tensor<120xi32>, tensor<120xi8>) outs(%203 : tensor<1x4x4x120xi8>) {
    ^bb0(%in: i32, %in_282: i32, %in_283: i8, %out: i8):
      %348 = tosa.apply_scale %in, %in_282, %in_283 {rounding_mode = DOUBLE_ROUND} : (i32, i32, i8) -> i32
      %349 = arith.addi %348, %c-128_i32 : i32
      %350 = arith.maxsi %349, %c-128_i32 : i32
      %351 = arith.minsi %350, %c127_i32 : i32
      %352 = arith.trunci %351 : i32 to i8
      linalg.yield %352 : i8
    } -> tensor<1x4x4x120xi8>
    %collapsed_235 = tensor.collapse_shape %204 [[0, 1, 2], [3]] : tensor<1x4x4x120xi8> into tensor<16x120xi8>
    %205 = tensor.empty() : tensor<120x40xi8>
    %transposed_236 = linalg.transpose ins(%cst_96 : tensor<40x120xi8>) outs(%205 : tensor<120x40xi8>) permutation = [1, 0] 
    %206 = tensor.empty() : tensor<16x40xi32>
    %207 = linalg.generic {indexing_maps = [#map2, #map3], iterator_types = ["parallel", "parallel"]} ins(%cst_143 : tensor<40xi32>) outs(%206 : tensor<16x40xi32>) {
    ^bb0(%in: i32, %out: i32):
      linalg.yield %in : i32
    } -> tensor<16x40xi32>
    %208 = linalg.quantized_matmul ins(%collapsed_235, %transposed_236, %c-128_i32, %c0_i32 : tensor<16x120xi8>, tensor<120x40xi8>, i32, i32) outs(%207 : tensor<16x40xi32>) -> tensor<16x40xi32>
    %expanded_237 = tensor.expand_shape %208 [[0, 1, 2], [3]] output_shape [1, 4, 4, 40] : tensor<16x40xi32> into tensor<1x4x4x40xi32>
    %209 = tensor.empty() : tensor<1x4x4x40xi8>
    %210 = linalg.generic {indexing_maps = [#map1, #map, #map, #map1], iterator_types = ["parallel", "parallel", "parallel", "parallel"]} ins(%expanded_237, %cst_32, %cst_31 : tensor<1x4x4x40xi32>, tensor<40xi32>, tensor<40xi8>) outs(%209 : tensor<1x4x4x40xi8>) {
    ^bb0(%in: i32, %in_282: i32, %in_283: i8, %out: i8):
      %348 = tosa.apply_scale %in, %in_282, %in_283 {rounding_mode = DOUBLE_ROUND} : (i32, i32, i8) -> i32
      %349 = arith.addi %348, %c25_i32 : i32
      %350 = arith.maxsi %349, %c-128_i32 : i32
      %351 = arith.minsi %350, %c127_i32 : i32
      %352 = arith.trunci %351 : i32 to i8
      linalg.yield %352 : i8
    } -> tensor<1x4x4x40xi8>
    %211 = tensor.empty() : tensor<1x4x4x40xi32>
    %212 = linalg.generic {indexing_maps = [#map1, #map1], iterator_types = ["parallel", "parallel", "parallel", "parallel"]} ins(%210 : tensor<1x4x4x40xi8>) outs(%211 : tensor<1x4x4x40xi32>) {
    ^bb0(%in: i8, %out: i32):
      %348 = arith.extsi %in : i8 to i32
      %349 = arith.subi %348, %c25_i32 : i32
      %350 = tosa.apply_scale %349, %c1073741824_i32, %c10_i8 {rounding_mode = SINGLE_ROUND} : (i32, i32, i8) -> i32
      linalg.yield %350 : i32
    } -> tensor<1x4x4x40xi32>
    %213 = tensor.empty() : tensor<1x4x4x40xi32>
    %214 = linalg.generic {indexing_maps = [#map1, #map1], iterator_types = ["parallel", "parallel", "parallel", "parallel"]} ins(%212 : tensor<1x4x4x40xi32>) outs(%213 : tensor<1x4x4x40xi32>) {
    ^bb0(%in: i32, %out: i32):
      %348 = tosa.apply_scale %in, %c1391170981_i32, %c33_i8 {rounding_mode = DOUBLE_ROUND} : (i32, i32, i8) -> i32
      linalg.yield %348 : i32
    } -> tensor<1x4x4x40xi32>
    %215 = tensor.empty() : tensor<1x4x4x40xi32>
    %216 = linalg.generic {indexing_maps = [#map1, #map1], iterator_types = ["parallel", "parallel", "parallel", "parallel"]} ins(%191 : tensor<1x4x4x40xi8>) outs(%215 : tensor<1x4x4x40xi32>) {
    ^bb0(%in: i8, %out: i32):
      %348 = arith.extsi %in : i8 to i32
      %349 = arith.subi %348, %c-9_i32 : i32
      %350 = tosa.apply_scale %349, %c1073741824_i32, %c11_i8 {rounding_mode = SINGLE_ROUND} : (i32, i32, i8) -> i32
      linalg.yield %350 : i32
    } -> tensor<1x4x4x40xi32>
    %217 = tensor.empty() : tensor<1x4x4x40xi32>
    %218 = linalg.generic {indexing_maps = [#map4, #map4, #map1], iterator_types = ["parallel", "parallel", "parallel", "parallel"]} ins(%214, %216 : tensor<1x4x4x40xi32>, tensor<1x4x4x40xi32>) outs(%217 : tensor<1x4x4x40xi32>) {
    ^bb0(%in: i32, %in_282: i32, %out: i32):
      %348 = arith.addi %in, %in_282 : i32
      linalg.yield %348 : i32
    } -> tensor<1x4x4x40xi32>
    %219 = tensor.empty() : tensor<1x4x4x40xi8>
    %220 = linalg.generic {indexing_maps = [#map1, #map1], iterator_types = ["parallel", "parallel", "parallel", "parallel"]} ins(%218 : tensor<1x4x4x40xi32>) outs(%219 : tensor<1x4x4x40xi8>) {
    ^bb0(%in: i32, %out: i8):
      %348 = tosa.apply_scale %in, %c2136511470_i32, %c50_i8 {rounding_mode = DOUBLE_ROUND} : (i32, i32, i8) -> i32
      %349 = arith.addi %348, %c-11_i32 : i32
      %350 = arith.maxsi %349, %c-128_i32 : i32
      %351 = arith.minsi %350, %c127_i32 : i32
      %352 = arith.trunci %351 : i32 to i8
      linalg.yield %352 : i8
    } -> tensor<1x4x4x40xi8>
    %collapsed_238 = tensor.collapse_shape %220 [[0, 1, 2], [3]] : tensor<1x4x4x40xi8> into tensor<16x40xi8>
    %221 = tensor.empty() : tensor<40x120xi8>
    %transposed_239 = linalg.transpose ins(%cst_95 : tensor<120x40xi8>) outs(%221 : tensor<40x120xi8>) permutation = [1, 0] 
    %222 = tensor.empty() : tensor<16x120xi32>
    %223 = linalg.generic {indexing_maps = [#map2, #map3], iterator_types = ["parallel", "parallel"]} ins(%cst_142 : tensor<120xi32>) outs(%222 : tensor<16x120xi32>) {
    ^bb0(%in: i32, %out: i32):
      linalg.yield %in : i32
    } -> tensor<16x120xi32>
    %224 = linalg.quantized_matmul ins(%collapsed_238, %transposed_239, %c-11_i32, %c0_i32 : tensor<16x40xi8>, tensor<40x120xi8>, i32, i32) outs(%223 : tensor<16x120xi32>) -> tensor<16x120xi32>
    %expanded_240 = tensor.expand_shape %224 [[0, 1, 2], [3]] output_shape [1, 4, 4, 120] : tensor<16x120xi32> into tensor<1x4x4x120xi32>
    %225 = tensor.empty() : tensor<1x4x4x120xi8>
    %226 = linalg.generic {indexing_maps = [#map1, #map, #map, #map1], iterator_types = ["parallel", "parallel", "parallel", "parallel"]} ins(%expanded_240, %cst_30, %cst_29 : tensor<1x4x4x120xi32>, tensor<120xi32>, tensor<120xi8>) outs(%225 : tensor<1x4x4x120xi8>) {
    ^bb0(%in: i32, %in_282: i32, %in_283: i8, %out: i8):
      %348 = tosa.apply_scale %in, %in_282, %in_283 {rounding_mode = DOUBLE_ROUND} : (i32, i32, i8) -> i32
      %349 = arith.addi %348, %c-128_i32 : i32
      %350 = arith.maxsi %349, %c-128_i32 : i32
      %351 = arith.minsi %350, %c127_i32 : i32
      %352 = arith.trunci %351 : i32 to i8
      linalg.yield %352 : i8
    } -> tensor<1x4x4x120xi8>
    %padded_241 = tensor.pad %226 low[%c0, %c1, %c1, %c0] high[%c0, %c1, %c1, %c0] {
    ^bb0(%arg1: index, %arg2: index, %arg3: index, %arg4: index):
      tensor.yield %c-128_i8 : i8
    } : tensor<1x4x4x120xi8> to tensor<1x6x6x120xi8>
    %227 = tensor.empty() : tensor<1x4x4x120x1xi32>
    %228 = linalg.fill ins(%c0_i32 : i32) outs(%227 : tensor<1x4x4x120x1xi32>) -> tensor<1x4x4x120x1xi32>
    %229 = tensor.empty() : tensor<1x4x4x120xi32>
    %230 = linalg.depthwise_conv_2d_nhwc_hwcm_q {dilations = dense<1> : tensor<2xi64>, strides = dense<1> : tensor<2xi64>} ins(%padded_241, %cst_117, %c-128_i32, %c0_i32 : tensor<1x6x6x120xi8>, tensor<3x3x120x1xi8>, i32, i32) outs(%228 : tensor<1x4x4x120x1xi32>) -> tensor<1x4x4x120x1xi32>
    %collapsed_242 = tensor.collapse_shape %230 [[0], [1], [2], [3, 4]] : tensor<1x4x4x120x1xi32> into tensor<1x4x4x120xi32>
    %231 = linalg.generic {indexing_maps = [#map, #map1, #map1], iterator_types = ["parallel", "parallel", "parallel", "parallel"]} ins(%cst_141, %collapsed_242 : tensor<120xi32>, tensor<1x4x4x120xi32>) outs(%229 : tensor<1x4x4x120xi32>) {
    ^bb0(%in: i32, %in_282: i32, %out: i32):
      %348 = arith.addi %in, %in_282 : i32
      linalg.yield %348 : i32
    } -> tensor<1x4x4x120xi32>
    %232 = tensor.empty() : tensor<1x4x4x120xi8>
    %233 = linalg.generic {indexing_maps = [#map1, #map, #map, #map1], iterator_types = ["parallel", "parallel", "parallel", "parallel"]} ins(%231, %cst_28, %cst_27 : tensor<1x4x4x120xi32>, tensor<120xi32>, tensor<120xi8>) outs(%232 : tensor<1x4x4x120xi8>) {
    ^bb0(%in: i32, %in_282: i32, %in_283: i8, %out: i8):
      %348 = tosa.apply_scale %in, %in_282, %in_283 {rounding_mode = DOUBLE_ROUND} : (i32, i32, i8) -> i32
      %349 = arith.addi %348, %c-128_i32 : i32
      %350 = arith.maxsi %349, %c-128_i32 : i32
      %351 = arith.minsi %350, %c127_i32 : i32
      %352 = arith.trunci %351 : i32 to i8
      linalg.yield %352 : i8
    } -> tensor<1x4x4x120xi8>
    %collapsed_243 = tensor.collapse_shape %233 [[0, 1, 2], [3]] : tensor<1x4x4x120xi8> into tensor<16x120xi8>
    %234 = tensor.empty() : tensor<120x48xi8>
    %transposed_244 = linalg.transpose ins(%cst_94 : tensor<48x120xi8>) outs(%234 : tensor<120x48xi8>) permutation = [1, 0] 
    %235 = tensor.empty() : tensor<16x48xi32>
    %236 = linalg.generic {indexing_maps = [#map2, #map3], iterator_types = ["parallel", "parallel"]} ins(%cst_140 : tensor<48xi32>) outs(%235 : tensor<16x48xi32>) {
    ^bb0(%in: i32, %out: i32):
      linalg.yield %in : i32
    } -> tensor<16x48xi32>
    %237 = linalg.quantized_matmul ins(%collapsed_243, %transposed_244, %c-128_i32, %c0_i32 : tensor<16x120xi8>, tensor<120x48xi8>, i32, i32) outs(%236 : tensor<16x48xi32>) -> tensor<16x48xi32>
    %expanded_245 = tensor.expand_shape %237 [[0, 1, 2], [3]] output_shape [1, 4, 4, 48] : tensor<16x48xi32> into tensor<1x4x4x48xi32>
    %238 = tensor.empty() : tensor<1x4x4x48xi8>
    %239 = linalg.generic {indexing_maps = [#map1, #map, #map, #map1], iterator_types = ["parallel", "parallel", "parallel", "parallel"]} ins(%expanded_245, %cst_26, %cst_25 : tensor<1x4x4x48xi32>, tensor<48xi32>, tensor<48xi8>) outs(%238 : tensor<1x4x4x48xi8>) {
    ^bb0(%in: i32, %in_282: i32, %in_283: i8, %out: i8):
      %348 = tosa.apply_scale %in, %in_282, %in_283 {rounding_mode = DOUBLE_ROUND} : (i32, i32, i8) -> i32
      %349 = arith.addi %348, %c-2_i32 : i32
      %350 = arith.maxsi %349, %c-128_i32 : i32
      %351 = arith.minsi %350, %c127_i32 : i32
      %352 = arith.trunci %351 : i32 to i8
      linalg.yield %352 : i8
    } -> tensor<1x4x4x48xi8>
    %collapsed_246 = tensor.collapse_shape %239 [[0, 1, 2], [3]] : tensor<1x4x4x48xi8> into tensor<16x48xi8>
    %240 = tensor.empty() : tensor<48x192xi8>
    %transposed_247 = linalg.transpose ins(%cst_93 : tensor<192x48xi8>) outs(%240 : tensor<48x192xi8>) permutation = [1, 0] 
    %241 = tensor.empty() : tensor<16x192xi32>
    %242 = linalg.generic {indexing_maps = [#map2, #map3], iterator_types = ["parallel", "parallel"]} ins(%cst_139 : tensor<192xi32>) outs(%241 : tensor<16x192xi32>) {
    ^bb0(%in: i32, %out: i32):
      linalg.yield %in : i32
    } -> tensor<16x192xi32>
    %243 = linalg.quantized_matmul ins(%collapsed_246, %transposed_247, %c-2_i32, %c0_i32 : tensor<16x48xi8>, tensor<48x192xi8>, i32, i32) outs(%242 : tensor<16x192xi32>) -> tensor<16x192xi32>
    %expanded_248 = tensor.expand_shape %243 [[0, 1, 2], [3]] output_shape [1, 4, 4, 192] : tensor<16x192xi32> into tensor<1x4x4x192xi32>
    %244 = tensor.empty() : tensor<1x4x4x192xi8>
    %245 = linalg.generic {indexing_maps = [#map1, #map, #map, #map1], iterator_types = ["parallel", "parallel", "parallel", "parallel"]} ins(%expanded_248, %cst_24, %cst_23 : tensor<1x4x4x192xi32>, tensor<192xi32>, tensor<192xi8>) outs(%244 : tensor<1x4x4x192xi8>) {
    ^bb0(%in: i32, %in_282: i32, %in_283: i8, %out: i8):
      %348 = tosa.apply_scale %in, %in_282, %in_283 {rounding_mode = DOUBLE_ROUND} : (i32, i32, i8) -> i32
      %349 = arith.addi %348, %c-128_i32 : i32
      %350 = arith.maxsi %349, %c-128_i32 : i32
      %351 = arith.minsi %350, %c127_i32 : i32
      %352 = arith.trunci %351 : i32 to i8
      linalg.yield %352 : i8
    } -> tensor<1x4x4x192xi8>
    %padded_249 = tensor.pad %245 low[%c0, %c1, %c1, %c0] high[%c0, %c1, %c1, %c0] {
    ^bb0(%arg1: index, %arg2: index, %arg3: index, %arg4: index):
      tensor.yield %c-128_i8 : i8
    } : tensor<1x4x4x192xi8> to tensor<1x6x6x192xi8>
    %246 = tensor.empty() : tensor<1x4x4x192x1xi32>
    %247 = linalg.fill ins(%c0_i32 : i32) outs(%246 : tensor<1x4x4x192x1xi32>) -> tensor<1x4x4x192x1xi32>
    %248 = tensor.empty() : tensor<1x4x4x192xi32>
    %249 = linalg.depthwise_conv_2d_nhwc_hwcm_q {dilations = dense<1> : tensor<2xi64>, strides = dense<1> : tensor<2xi64>} ins(%padded_249, %cst_116, %c-128_i32, %c0_i32 : tensor<1x6x6x192xi8>, tensor<3x3x192x1xi8>, i32, i32) outs(%247 : tensor<1x4x4x192x1xi32>) -> tensor<1x4x4x192x1xi32>
    %collapsed_250 = tensor.collapse_shape %249 [[0], [1], [2], [3, 4]] : tensor<1x4x4x192x1xi32> into tensor<1x4x4x192xi32>
    %250 = linalg.generic {indexing_maps = [#map, #map1, #map1], iterator_types = ["parallel", "parallel", "parallel", "parallel"]} ins(%cst_138, %collapsed_250 : tensor<192xi32>, tensor<1x4x4x192xi32>) outs(%248 : tensor<1x4x4x192xi32>) {
    ^bb0(%in: i32, %in_282: i32, %out: i32):
      %348 = arith.addi %in, %in_282 : i32
      linalg.yield %348 : i32
    } -> tensor<1x4x4x192xi32>
    %251 = tensor.empty() : tensor<1x4x4x192xi8>
    %252 = linalg.generic {indexing_maps = [#map1, #map, #map, #map1], iterator_types = ["parallel", "parallel", "parallel", "parallel"]} ins(%250, %cst_22, %cst_21 : tensor<1x4x4x192xi32>, tensor<192xi32>, tensor<192xi8>) outs(%251 : tensor<1x4x4x192xi8>) {
    ^bb0(%in: i32, %in_282: i32, %in_283: i8, %out: i8):
      %348 = tosa.apply_scale %in, %in_282, %in_283 {rounding_mode = DOUBLE_ROUND} : (i32, i32, i8) -> i32
      %349 = arith.addi %348, %c-128_i32 : i32
      %350 = arith.maxsi %349, %c-128_i32 : i32
      %351 = arith.minsi %350, %c127_i32 : i32
      %352 = arith.trunci %351 : i32 to i8
      linalg.yield %352 : i8
    } -> tensor<1x4x4x192xi8>
    %collapsed_251 = tensor.collapse_shape %252 [[0, 1, 2], [3]] : tensor<1x4x4x192xi8> into tensor<16x192xi8>
    %253 = tensor.empty() : tensor<192x48xi8>
    %transposed_252 = linalg.transpose ins(%cst_92 : tensor<48x192xi8>) outs(%253 : tensor<192x48xi8>) permutation = [1, 0] 
    %254 = tensor.empty() : tensor<16x48xi32>
    %255 = linalg.generic {indexing_maps = [#map2, #map3], iterator_types = ["parallel", "parallel"]} ins(%cst_137 : tensor<48xi32>) outs(%254 : tensor<16x48xi32>) {
    ^bb0(%in: i32, %out: i32):
      linalg.yield %in : i32
    } -> tensor<16x48xi32>
    %256 = linalg.quantized_matmul ins(%collapsed_251, %transposed_252, %c-128_i32, %c0_i32 : tensor<16x192xi8>, tensor<192x48xi8>, i32, i32) outs(%255 : tensor<16x48xi32>) -> tensor<16x48xi32>
    %expanded_253 = tensor.expand_shape %256 [[0, 1, 2], [3]] output_shape [1, 4, 4, 48] : tensor<16x48xi32> into tensor<1x4x4x48xi32>
    %257 = tensor.empty() : tensor<1x4x4x48xi8>
    %258 = linalg.generic {indexing_maps = [#map1, #map, #map, #map1], iterator_types = ["parallel", "parallel", "parallel", "parallel"]} ins(%expanded_253, %cst_20, %cst_19 : tensor<1x4x4x48xi32>, tensor<48xi32>, tensor<48xi8>) outs(%257 : tensor<1x4x4x48xi8>) {
    ^bb0(%in: i32, %in_282: i32, %in_283: i8, %out: i8):
      %348 = tosa.apply_scale %in, %in_282, %in_283 {rounding_mode = DOUBLE_ROUND} : (i32, i32, i8) -> i32
      %349 = arith.addi %348, %c-11_i32 : i32
      %350 = arith.maxsi %349, %c-128_i32 : i32
      %351 = arith.minsi %350, %c127_i32 : i32
      %352 = arith.trunci %351 : i32 to i8
      linalg.yield %352 : i8
    } -> tensor<1x4x4x48xi8>
    %259 = tensor.empty() : tensor<1x4x4x48xi32>
    %260 = linalg.generic {indexing_maps = [#map1, #map1], iterator_types = ["parallel", "parallel", "parallel", "parallel"]} ins(%258 : tensor<1x4x4x48xi8>) outs(%259 : tensor<1x4x4x48xi32>) {
    ^bb0(%in: i8, %out: i32):
      %348 = arith.extsi %in : i8 to i32
      %349 = arith.subi %348, %c-11_i32 : i32
      %350 = tosa.apply_scale %349, %c1073741824_i32, %c11_i8 {rounding_mode = SINGLE_ROUND} : (i32, i32, i8) -> i32
      linalg.yield %350 : i32
    } -> tensor<1x4x4x48xi32>
    %261 = tensor.empty() : tensor<1x4x4x48xi32>
    %262 = linalg.generic {indexing_maps = [#map1, #map1], iterator_types = ["parallel", "parallel", "parallel", "parallel"]} ins(%239 : tensor<1x4x4x48xi8>) outs(%261 : tensor<1x4x4x48xi32>) {
    ^bb0(%in: i8, %out: i32):
      %348 = arith.extsi %in : i8 to i32
      %349 = arith.subi %348, %c-2_i32 : i32
      %350 = tosa.apply_scale %349, %c1073741824_i32, %c10_i8 {rounding_mode = SINGLE_ROUND} : (i32, i32, i8) -> i32
      linalg.yield %350 : i32
    } -> tensor<1x4x4x48xi32>
    %263 = tensor.empty() : tensor<1x4x4x48xi32>
    %264 = linalg.generic {indexing_maps = [#map1, #map1], iterator_types = ["parallel", "parallel", "parallel", "parallel"]} ins(%262 : tensor<1x4x4x48xi32>) outs(%263 : tensor<1x4x4x48xi32>) {
    ^bb0(%in: i32, %out: i32):
      %348 = tosa.apply_scale %in, %c1608900243_i32, %c32_i8 {rounding_mode = DOUBLE_ROUND} : (i32, i32, i8) -> i32
      linalg.yield %348 : i32
    } -> tensor<1x4x4x48xi32>
    %265 = tensor.empty() : tensor<1x4x4x48xi32>
    %266 = linalg.generic {indexing_maps = [#map4, #map4, #map1], iterator_types = ["parallel", "parallel", "parallel", "parallel"]} ins(%260, %264 : tensor<1x4x4x48xi32>, tensor<1x4x4x48xi32>) outs(%265 : tensor<1x4x4x48xi32>) {
    ^bb0(%in: i32, %in_282: i32, %out: i32):
      %348 = arith.addi %in, %in_282 : i32
      linalg.yield %348 : i32
    } -> tensor<1x4x4x48xi32>
    %267 = tensor.empty() : tensor<1x4x4x48xi8>
    %268 = linalg.generic {indexing_maps = [#map1, #map1], iterator_types = ["parallel", "parallel", "parallel", "parallel"]} ins(%266 : tensor<1x4x4x48xi32>) outs(%267 : tensor<1x4x4x48xi8>) {
    ^bb0(%in: i32, %out: i8):
      %348 = tosa.apply_scale %in, %c2140498155_i32, %c50_i8 {rounding_mode = DOUBLE_ROUND} : (i32, i32, i8) -> i32
      %349 = arith.addi %348, %c-1_i32 : i32
      %350 = arith.maxsi %349, %c-128_i32 : i32
      %351 = arith.minsi %350, %c127_i32 : i32
      %352 = arith.trunci %351 : i32 to i8
      linalg.yield %352 : i8
    } -> tensor<1x4x4x48xi8>
    %collapsed_254 = tensor.collapse_shape %268 [[0, 1, 2], [3]] : tensor<1x4x4x48xi8> into tensor<16x48xi8>
    %269 = tensor.empty() : tensor<48x240xi8>
    %transposed_255 = linalg.transpose ins(%cst_91 : tensor<240x48xi8>) outs(%269 : tensor<48x240xi8>) permutation = [1, 0] 
    %270 = tensor.empty() : tensor<16x240xi32>
    %271 = linalg.generic {indexing_maps = [#map2, #map3], iterator_types = ["parallel", "parallel"]} ins(%cst_136 : tensor<240xi32>) outs(%270 : tensor<16x240xi32>) {
    ^bb0(%in: i32, %out: i32):
      linalg.yield %in : i32
    } -> tensor<16x240xi32>
    %272 = linalg.quantized_matmul ins(%collapsed_254, %transposed_255, %c-1_i32, %c0_i32 : tensor<16x48xi8>, tensor<48x240xi8>, i32, i32) outs(%271 : tensor<16x240xi32>) -> tensor<16x240xi32>
    %expanded_256 = tensor.expand_shape %272 [[0, 1, 2], [3]] output_shape [1, 4, 4, 240] : tensor<16x240xi32> into tensor<1x4x4x240xi32>
    %273 = tensor.empty() : tensor<1x4x4x240xi8>
    %274 = linalg.generic {indexing_maps = [#map1, #map, #map, #map1], iterator_types = ["parallel", "parallel", "parallel", "parallel"]} ins(%expanded_256, %cst_18, %cst_17 : tensor<1x4x4x240xi32>, tensor<240xi32>, tensor<240xi8>) outs(%273 : tensor<1x4x4x240xi8>) {
    ^bb0(%in: i32, %in_282: i32, %in_283: i8, %out: i8):
      %348 = tosa.apply_scale %in, %in_282, %in_283 {rounding_mode = DOUBLE_ROUND} : (i32, i32, i8) -> i32
      %349 = arith.addi %348, %c-128_i32 : i32
      %350 = arith.maxsi %349, %c-128_i32 : i32
      %351 = arith.minsi %350, %c127_i32 : i32
      %352 = arith.trunci %351 : i32 to i8
      linalg.yield %352 : i8
    } -> tensor<1x4x4x240xi8>
    %padded_257 = tensor.pad %274 low[%c0, %c3, %c3, %c0] high[%c0, %c3, %c3, %c0] {
    ^bb0(%arg1: index, %arg2: index, %arg3: index, %arg4: index):
      tensor.yield %c-128_i8 : i8
    } : tensor<1x4x4x240xi8> to tensor<1x10x10x240xi8>
    %275 = tensor.empty() : tensor<1x2x2x240x1xi32>
    %276 = linalg.fill ins(%c0_i32 : i32) outs(%275 : tensor<1x2x2x240x1xi32>) -> tensor<1x2x2x240x1xi32>
    %277 = tensor.empty() : tensor<1x2x2x240xi32>
    %278 = linalg.depthwise_conv_2d_nhwc_hwcm_q {dilations = dense<1> : tensor<2xi64>, strides = dense<2> : tensor<2xi64>} ins(%padded_257, %cst_115, %c-128_i32, %c0_i32 : tensor<1x10x10x240xi8>, tensor<7x7x240x1xi8>, i32, i32) outs(%276 : tensor<1x2x2x240x1xi32>) -> tensor<1x2x2x240x1xi32>
    %collapsed_258 = tensor.collapse_shape %278 [[0], [1], [2], [3, 4]] : tensor<1x2x2x240x1xi32> into tensor<1x2x2x240xi32>
    %279 = linalg.generic {indexing_maps = [#map, #map1, #map1], iterator_types = ["parallel", "parallel", "parallel", "parallel"]} ins(%cst_135, %collapsed_258 : tensor<240xi32>, tensor<1x2x2x240xi32>) outs(%277 : tensor<1x2x2x240xi32>) {
    ^bb0(%in: i32, %in_282: i32, %out: i32):
      %348 = arith.addi %in, %in_282 : i32
      linalg.yield %348 : i32
    } -> tensor<1x2x2x240xi32>
    %280 = tensor.empty() : tensor<1x2x2x240xi8>
    %281 = linalg.generic {indexing_maps = [#map1, #map, #map, #map1], iterator_types = ["parallel", "parallel", "parallel", "parallel"]} ins(%279, %cst_16, %cst_15 : tensor<1x2x2x240xi32>, tensor<240xi32>, tensor<240xi8>) outs(%280 : tensor<1x2x2x240xi8>) {
    ^bb0(%in: i32, %in_282: i32, %in_283: i8, %out: i8):
      %348 = tosa.apply_scale %in, %in_282, %in_283 {rounding_mode = DOUBLE_ROUND} : (i32, i32, i8) -> i32
      %349 = arith.addi %348, %c-128_i32 : i32
      %350 = arith.maxsi %349, %c-128_i32 : i32
      %351 = arith.minsi %350, %c127_i32 : i32
      %352 = arith.trunci %351 : i32 to i8
      linalg.yield %352 : i8
    } -> tensor<1x2x2x240xi8>
    %collapsed_259 = tensor.collapse_shape %281 [[0, 1, 2], [3]] : tensor<1x2x2x240xi8> into tensor<4x240xi8>
    %282 = tensor.empty() : tensor<240x96xi8>
    %transposed_260 = linalg.transpose ins(%cst_90 : tensor<96x240xi8>) outs(%282 : tensor<240x96xi8>) permutation = [1, 0] 
    %283 = tensor.empty() : tensor<4x96xi32>
    %284 = linalg.generic {indexing_maps = [#map2, #map3], iterator_types = ["parallel", "parallel"]} ins(%cst_134 : tensor<96xi32>) outs(%283 : tensor<4x96xi32>) {
    ^bb0(%in: i32, %out: i32):
      linalg.yield %in : i32
    } -> tensor<4x96xi32>
    %285 = linalg.quantized_matmul ins(%collapsed_259, %transposed_260, %c-128_i32, %c0_i32 : tensor<4x240xi8>, tensor<240x96xi8>, i32, i32) outs(%284 : tensor<4x96xi32>) -> tensor<4x96xi32>
    %expanded_261 = tensor.expand_shape %285 [[0, 1, 2], [3]] output_shape [1, 2, 2, 96] : tensor<4x96xi32> into tensor<1x2x2x96xi32>
    %286 = tensor.empty() : tensor<1x2x2x96xi8>
    %287 = linalg.generic {indexing_maps = [#map1, #map, #map, #map1], iterator_types = ["parallel", "parallel", "parallel", "parallel"]} ins(%expanded_261, %cst_14, %cst_13 : tensor<1x2x2x96xi32>, tensor<96xi32>, tensor<96xi8>) outs(%286 : tensor<1x2x2x96xi8>) {
    ^bb0(%in: i32, %in_282: i32, %in_283: i8, %out: i8):
      %348 = tosa.apply_scale %in, %in_282, %in_283 {rounding_mode = DOUBLE_ROUND} : (i32, i32, i8) -> i32
      %349 = arith.addi %348, %c-15_i32 : i32
      %350 = arith.maxsi %349, %c-128_i32 : i32
      %351 = arith.minsi %350, %c127_i32 : i32
      %352 = arith.trunci %351 : i32 to i8
      linalg.yield %352 : i8
    } -> tensor<1x2x2x96xi8>
    %collapsed_262 = tensor.collapse_shape %287 [[0, 1, 2], [3]] : tensor<1x2x2x96xi8> into tensor<4x96xi8>
    %288 = tensor.empty() : tensor<96x480xi8>
    %transposed_263 = linalg.transpose ins(%cst_89 : tensor<480x96xi8>) outs(%288 : tensor<96x480xi8>) permutation = [1, 0] 
    %289 = tensor.empty() : tensor<4x480xi32>
    %290 = linalg.generic {indexing_maps = [#map2, #map3], iterator_types = ["parallel", "parallel"]} ins(%cst_133 : tensor<480xi32>) outs(%289 : tensor<4x480xi32>) {
    ^bb0(%in: i32, %out: i32):
      linalg.yield %in : i32
    } -> tensor<4x480xi32>
    %291 = linalg.quantized_matmul ins(%collapsed_262, %transposed_263, %c-15_i32, %c0_i32 : tensor<4x96xi8>, tensor<96x480xi8>, i32, i32) outs(%290 : tensor<4x480xi32>) -> tensor<4x480xi32>
    %expanded_264 = tensor.expand_shape %291 [[0, 1, 2], [3]] output_shape [1, 2, 2, 480] : tensor<4x480xi32> into tensor<1x2x2x480xi32>
    %292 = tensor.empty() : tensor<1x2x2x480xi8>
    %293 = linalg.generic {indexing_maps = [#map1, #map, #map, #map1], iterator_types = ["parallel", "parallel", "parallel", "parallel"]} ins(%expanded_264, %cst_12, %cst_11 : tensor<1x2x2x480xi32>, tensor<480xi32>, tensor<480xi8>) outs(%292 : tensor<1x2x2x480xi8>) {
    ^bb0(%in: i32, %in_282: i32, %in_283: i8, %out: i8):
      %348 = tosa.apply_scale %in, %in_282, %in_283 {rounding_mode = DOUBLE_ROUND} : (i32, i32, i8) -> i32
      %349 = arith.addi %348, %c-128_i32 : i32
      %350 = arith.maxsi %349, %c-128_i32 : i32
      %351 = arith.minsi %350, %c127_i32 : i32
      %352 = arith.trunci %351 : i32 to i8
      linalg.yield %352 : i8
    } -> tensor<1x2x2x480xi8>
    %padded_265 = tensor.pad %293 low[%c0, %c2, %c2, %c0] high[%c0, %c2, %c2, %c0] {
    ^bb0(%arg1: index, %arg2: index, %arg3: index, %arg4: index):
      tensor.yield %c-128_i8 : i8
    } : tensor<1x2x2x480xi8> to tensor<1x6x6x480xi8>
    %294 = tensor.empty() : tensor<1x2x2x480x1xi32>
    %295 = linalg.fill ins(%c0_i32 : i32) outs(%294 : tensor<1x2x2x480x1xi32>) -> tensor<1x2x2x480x1xi32>
    %296 = tensor.empty() : tensor<1x2x2x480xi32>
    %297 = linalg.depthwise_conv_2d_nhwc_hwcm_q {dilations = dense<1> : tensor<2xi64>, strides = dense<1> : tensor<2xi64>} ins(%padded_265, %cst_114, %c-128_i32, %c0_i32 : tensor<1x6x6x480xi8>, tensor<5x5x480x1xi8>, i32, i32) outs(%295 : tensor<1x2x2x480x1xi32>) -> tensor<1x2x2x480x1xi32>
    %collapsed_266 = tensor.collapse_shape %297 [[0], [1], [2], [3, 4]] : tensor<1x2x2x480x1xi32> into tensor<1x2x2x480xi32>
    %298 = linalg.generic {indexing_maps = [#map, #map1, #map1], iterator_types = ["parallel", "parallel", "parallel", "parallel"]} ins(%cst_132, %collapsed_266 : tensor<480xi32>, tensor<1x2x2x480xi32>) outs(%296 : tensor<1x2x2x480xi32>) {
    ^bb0(%in: i32, %in_282: i32, %out: i32):
      %348 = arith.addi %in, %in_282 : i32
      linalg.yield %348 : i32
    } -> tensor<1x2x2x480xi32>
    %299 = tensor.empty() : tensor<1x2x2x480xi8>
    %300 = linalg.generic {indexing_maps = [#map1, #map, #map, #map1], iterator_types = ["parallel", "parallel", "parallel", "parallel"]} ins(%298, %cst_10, %cst_9 : tensor<1x2x2x480xi32>, tensor<480xi32>, tensor<480xi8>) outs(%299 : tensor<1x2x2x480xi8>) {
    ^bb0(%in: i32, %in_282: i32, %in_283: i8, %out: i8):
      %348 = tosa.apply_scale %in, %in_282, %in_283 {rounding_mode = DOUBLE_ROUND} : (i32, i32, i8) -> i32
      %349 = arith.addi %348, %c-128_i32 : i32
      %350 = arith.maxsi %349, %c-128_i32 : i32
      %351 = arith.minsi %350, %c127_i32 : i32
      %352 = arith.trunci %351 : i32 to i8
      linalg.yield %352 : i8
    } -> tensor<1x2x2x480xi8>
    %collapsed_267 = tensor.collapse_shape %300 [[0, 1, 2], [3]] : tensor<1x2x2x480xi8> into tensor<4x480xi8>
    %301 = tensor.empty() : tensor<480x96xi8>
    %transposed_268 = linalg.transpose ins(%cst_88 : tensor<96x480xi8>) outs(%301 : tensor<480x96xi8>) permutation = [1, 0] 
    %302 = tensor.empty() : tensor<4x96xi32>
    %303 = linalg.generic {indexing_maps = [#map2, #map3], iterator_types = ["parallel", "parallel"]} ins(%cst_131 : tensor<96xi32>) outs(%302 : tensor<4x96xi32>) {
    ^bb0(%in: i32, %out: i32):
      linalg.yield %in : i32
    } -> tensor<4x96xi32>
    %304 = linalg.quantized_matmul ins(%collapsed_267, %transposed_268, %c-128_i32, %c0_i32 : tensor<4x480xi8>, tensor<480x96xi8>, i32, i32) outs(%303 : tensor<4x96xi32>) -> tensor<4x96xi32>
    %expanded_269 = tensor.expand_shape %304 [[0, 1, 2], [3]] output_shape [1, 2, 2, 96] : tensor<4x96xi32> into tensor<1x2x2x96xi32>
    %305 = tensor.empty() : tensor<1x2x2x96xi8>
    %306 = linalg.generic {indexing_maps = [#map1, #map, #map, #map1], iterator_types = ["parallel", "parallel", "parallel", "parallel"]} ins(%expanded_269, %cst_8, %cst_7 : tensor<1x2x2x96xi32>, tensor<96xi32>, tensor<96xi8>) outs(%305 : tensor<1x2x2x96xi8>) {
    ^bb0(%in: i32, %in_282: i32, %in_283: i8, %out: i8):
      %348 = tosa.apply_scale %in, %in_282, %in_283 {rounding_mode = DOUBLE_ROUND} : (i32, i32, i8) -> i32
      %349 = arith.addi %348, %c4_i32 : i32
      %350 = arith.maxsi %349, %c-128_i32 : i32
      %351 = arith.minsi %350, %c127_i32 : i32
      %352 = arith.trunci %351 : i32 to i8
      linalg.yield %352 : i8
    } -> tensor<1x2x2x96xi8>
    %307 = tensor.empty() : tensor<1x2x2x96xi32>
    %308 = linalg.generic {indexing_maps = [#map1, #map1], iterator_types = ["parallel", "parallel", "parallel", "parallel"]} ins(%306 : tensor<1x2x2x96xi8>) outs(%307 : tensor<1x2x2x96xi32>) {
    ^bb0(%in: i8, %out: i32):
      %348 = arith.extsi %in : i8 to i32
      %349 = arith.subi %348, %c4_i32 : i32
      %350 = tosa.apply_scale %349, %c1073741824_i32, %c10_i8 {rounding_mode = SINGLE_ROUND} : (i32, i32, i8) -> i32
      linalg.yield %350 : i32
    } -> tensor<1x2x2x96xi32>
    %309 = tensor.empty() : tensor<1x2x2x96xi32>
    %310 = linalg.generic {indexing_maps = [#map1, #map1], iterator_types = ["parallel", "parallel", "parallel", "parallel"]} ins(%308 : tensor<1x2x2x96xi32>) outs(%309 : tensor<1x2x2x96xi32>) {
    ^bb0(%in: i32, %out: i32):
      %348 = tosa.apply_scale %in, %c1935178768_i32, %c32_i8 {rounding_mode = DOUBLE_ROUND} : (i32, i32, i8) -> i32
      linalg.yield %348 : i32
    } -> tensor<1x2x2x96xi32>
    %311 = tensor.empty() : tensor<1x2x2x96xi32>
    %312 = linalg.generic {indexing_maps = [#map1, #map1], iterator_types = ["parallel", "parallel", "parallel", "parallel"]} ins(%287 : tensor<1x2x2x96xi8>) outs(%311 : tensor<1x2x2x96xi32>) {
    ^bb0(%in: i8, %out: i32):
      %348 = arith.extsi %in : i8 to i32
      %349 = arith.subi %348, %c-15_i32 : i32
      %350 = tosa.apply_scale %349, %c1073741824_i32, %c11_i8 {rounding_mode = SINGLE_ROUND} : (i32, i32, i8) -> i32
      linalg.yield %350 : i32
    } -> tensor<1x2x2x96xi32>
    %313 = tensor.empty() : tensor<1x2x2x96xi32>
    %314 = linalg.generic {indexing_maps = [#map4, #map4, #map1], iterator_types = ["parallel", "parallel", "parallel", "parallel"]} ins(%310, %312 : tensor<1x2x2x96xi32>, tensor<1x2x2x96xi32>) outs(%313 : tensor<1x2x2x96xi32>) {
    ^bb0(%in: i32, %in_282: i32, %out: i32):
      %348 = arith.addi %in, %in_282 : i32
      linalg.yield %348 : i32
    } -> tensor<1x2x2x96xi32>
    %315 = tensor.empty() : tensor<1x2x2x96xi8>
    %316 = linalg.generic {indexing_maps = [#map1, #map1], iterator_types = ["parallel", "parallel", "parallel", "parallel"]} ins(%314 : tensor<1x2x2x96xi32>) outs(%315 : tensor<1x2x2x96xi8>) {
    ^bb0(%in: i32, %out: i8):
      %348 = tosa.apply_scale %in, %c1104644408_i32, %c49_i8 {rounding_mode = DOUBLE_ROUND} : (i32, i32, i8) -> i32
      %349 = arith.maxsi %348, %c-128_i32 : i32
      %350 = arith.minsi %349, %c127_i32 : i32
      %351 = arith.trunci %350 : i32 to i8
      linalg.yield %351 : i8
    } -> tensor<1x2x2x96xi8>
    %collapsed_270 = tensor.collapse_shape %316 [[0, 1, 2], [3]] : tensor<1x2x2x96xi8> into tensor<4x96xi8>
    %317 = tensor.empty() : tensor<96x384xi8>
    %transposed_271 = linalg.transpose ins(%cst_87 : tensor<384x96xi8>) outs(%317 : tensor<96x384xi8>) permutation = [1, 0] 
    %318 = tensor.empty() : tensor<4x384xi32>
    %319 = linalg.generic {indexing_maps = [#map2, #map3], iterator_types = ["parallel", "parallel"]} ins(%cst_130 : tensor<384xi32>) outs(%318 : tensor<4x384xi32>) {
    ^bb0(%in: i32, %out: i32):
      linalg.yield %in : i32
    } -> tensor<4x384xi32>
    %320 = linalg.quantized_matmul ins(%collapsed_270, %transposed_271, %c0_i32, %c0_i32 : tensor<4x96xi8>, tensor<96x384xi8>, i32, i32) outs(%319 : tensor<4x384xi32>) -> tensor<4x384xi32>
    %expanded_272 = tensor.expand_shape %320 [[0, 1, 2], [3]] output_shape [1, 2, 2, 384] : tensor<4x384xi32> into tensor<1x2x2x384xi32>
    %321 = tensor.empty() : tensor<1x2x2x384xi8>
    %322 = linalg.generic {indexing_maps = [#map1, #map, #map, #map1], iterator_types = ["parallel", "parallel", "parallel", "parallel"]} ins(%expanded_272, %cst_6, %cst_5 : tensor<1x2x2x384xi32>, tensor<384xi32>, tensor<384xi8>) outs(%321 : tensor<1x2x2x384xi8>) {
    ^bb0(%in: i32, %in_282: i32, %in_283: i8, %out: i8):
      %348 = tosa.apply_scale %in, %in_282, %in_283 {rounding_mode = DOUBLE_ROUND} : (i32, i32, i8) -> i32
      %349 = arith.addi %348, %c-128_i32 : i32
      %350 = arith.maxsi %349, %c-128_i32 : i32
      %351 = arith.minsi %350, %c127_i32 : i32
      %352 = arith.trunci %351 : i32 to i8
      linalg.yield %352 : i8
    } -> tensor<1x2x2x384xi8>
    %padded_273 = tensor.pad %322 low[%c0, %c3, %c3, %c0] high[%c0, %c3, %c3, %c0] {
    ^bb0(%arg1: index, %arg2: index, %arg3: index, %arg4: index):
      tensor.yield %c-128_i8 : i8
    } : tensor<1x2x2x384xi8> to tensor<1x8x8x384xi8>
    %323 = tensor.empty() : tensor<1x2x2x384x1xi32>
    %324 = linalg.fill ins(%c0_i32 : i32) outs(%323 : tensor<1x2x2x384x1xi32>) -> tensor<1x2x2x384x1xi32>
    %325 = tensor.empty() : tensor<1x2x2x384xi32>
    %326 = linalg.depthwise_conv_2d_nhwc_hwcm_q {dilations = dense<1> : tensor<2xi64>, strides = dense<1> : tensor<2xi64>} ins(%padded_273, %cst_113, %c-128_i32, %c0_i32 : tensor<1x8x8x384xi8>, tensor<7x7x384x1xi8>, i32, i32) outs(%324 : tensor<1x2x2x384x1xi32>) -> tensor<1x2x2x384x1xi32>
    %collapsed_274 = tensor.collapse_shape %326 [[0], [1], [2], [3, 4]] : tensor<1x2x2x384x1xi32> into tensor<1x2x2x384xi32>
    %327 = linalg.generic {indexing_maps = [#map, #map1, #map1], iterator_types = ["parallel", "parallel", "parallel", "parallel"]} ins(%cst_129, %collapsed_274 : tensor<384xi32>, tensor<1x2x2x384xi32>) outs(%325 : tensor<1x2x2x384xi32>) {
    ^bb0(%in: i32, %in_282: i32, %out: i32):
      %348 = arith.addi %in, %in_282 : i32
      linalg.yield %348 : i32
    } -> tensor<1x2x2x384xi32>
    %328 = tensor.empty() : tensor<1x2x2x384xi8>
    %329 = linalg.generic {indexing_maps = [#map1, #map, #map, #map1], iterator_types = ["parallel", "parallel", "parallel", "parallel"]} ins(%327, %cst_4, %cst_3 : tensor<1x2x2x384xi32>, tensor<384xi32>, tensor<384xi8>) outs(%328 : tensor<1x2x2x384xi8>) {
    ^bb0(%in: i32, %in_282: i32, %in_283: i8, %out: i8):
      %348 = tosa.apply_scale %in, %in_282, %in_283 {rounding_mode = DOUBLE_ROUND} : (i32, i32, i8) -> i32
      %349 = arith.addi %348, %c-128_i32 : i32
      %350 = arith.maxsi %349, %c-128_i32 : i32
      %351 = arith.minsi %350, %c127_i32 : i32
      %352 = arith.trunci %351 : i32 to i8
      linalg.yield %352 : i8
    } -> tensor<1x2x2x384xi8>
    %collapsed_275 = tensor.collapse_shape %329 [[0, 1, 2], [3]] : tensor<1x2x2x384xi8> into tensor<4x384xi8>
    %330 = tensor.empty() : tensor<384x160xi8>
    %transposed_276 = linalg.transpose ins(%cst_86 : tensor<160x384xi8>) outs(%330 : tensor<384x160xi8>) permutation = [1, 0] 
    %331 = tensor.empty() : tensor<4x160xi32>
    %332 = linalg.generic {indexing_maps = [#map2, #map3], iterator_types = ["parallel", "parallel"]} ins(%cst_128 : tensor<160xi32>) outs(%331 : tensor<4x160xi32>) {
    ^bb0(%in: i32, %out: i32):
      linalg.yield %in : i32
    } -> tensor<4x160xi32>
    %333 = linalg.quantized_matmul ins(%collapsed_275, %transposed_276, %c-128_i32, %c0_i32 : tensor<4x384xi8>, tensor<384x160xi8>, i32, i32) outs(%332 : tensor<4x160xi32>) -> tensor<4x160xi32>
    %expanded_277 = tensor.expand_shape %333 [[0, 1, 2], [3]] output_shape [1, 2, 2, 160] : tensor<4x160xi32> into tensor<1x2x2x160xi32>
    %334 = tensor.empty() : tensor<1x2x2x160xi8>
    %335 = linalg.generic {indexing_maps = [#map1, #map, #map, #map1], iterator_types = ["parallel", "parallel", "parallel", "parallel"]} ins(%expanded_277, %cst_2, %cst_1 : tensor<1x2x2x160xi32>, tensor<160xi32>, tensor<160xi8>) outs(%334 : tensor<1x2x2x160xi8>) {
    ^bb0(%in: i32, %in_282: i32, %in_283: i8, %out: i8):
      %348 = tosa.apply_scale %in, %in_282, %in_283 {rounding_mode = DOUBLE_ROUND} : (i32, i32, i8) -> i32
      %349 = arith.addi %348, %c12_i32 : i32
      %350 = arith.maxsi %349, %c-128_i32 : i32
      %351 = arith.minsi %350, %c127_i32 : i32
      %352 = arith.trunci %351 : i32 to i8
      linalg.yield %352 : i8
    } -> tensor<1x2x2x160xi8>
    %336 = tensor.empty() : tensor<1x1x1x160xi32>
    %337 = linalg.fill ins(%c0_i32 : i32) outs(%336 : tensor<1x1x1x160xi32>) -> tensor<1x1x1x160xi32>
    %338 = tensor.empty() : tensor<2x2xi32>
    %339 = linalg.pooling_nhwc_sum {dilations = dense<1> : vector<2xi64>, strides = dense<2> : vector<2xi64>} ins(%335, %338 : tensor<1x2x2x160xi8>, tensor<2x2xi32>) outs(%337 : tensor<1x1x1x160xi32>) -> tensor<1x1x1x160xi32>
    %340 = tensor.empty() : tensor<1x1x1x160xi8>
    %341 = linalg.generic {indexing_maps = [#map1, #map1], iterator_types = ["parallel", "parallel", "parallel", "parallel"]} ins(%339 : tensor<1x1x1x160xi32>) outs(%340 : tensor<1x1x1x160xi8>) {
    ^bb0(%in: i32, %out: i8):
      %348 = tosa.apply_scale %in, %c1073741825_i32, %c32_i8 {rounding_mode = SINGLE_ROUND} : (i32, i32, i8) -> i32
      %349 = arith.maxsi %348, %c-128_i32 : i32
      %350 = arith.minsi %349, %c127_i32 : i32
      %351 = arith.trunci %350 : i32 to i8
      linalg.yield %351 : i8
    } -> tensor<1x1x1x160xi8>
    %collapsed_278 = tensor.collapse_shape %341 [[0, 1, 2], [3]] : tensor<1x1x1x160xi8> into tensor<1x160xi8>
    %342 = tensor.empty() : tensor<160x2xi8>
    %transposed_279 = linalg.transpose ins(%cst_85 : tensor<2x160xi8>) outs(%342 : tensor<160x2xi8>) permutation = [1, 0] 
    %343 = tensor.empty() : tensor<1x2xi32>
    %344 = linalg.generic {indexing_maps = [#map2, #map3], iterator_types = ["parallel", "parallel"]} ins(%cst_127 : tensor<2xi32>) outs(%343 : tensor<1x2xi32>) {
    ^bb0(%in: i32, %out: i32):
      linalg.yield %in : i32
    } -> tensor<1x2xi32>
    %345 = linalg.quantized_matmul ins(%collapsed_278, %transposed_279, %c12_i32, %c0_i32 : tensor<1x160xi8>, tensor<160x2xi8>, i32, i32) outs(%344 : tensor<1x2xi32>) -> tensor<1x2xi32>
    %expanded_280 = tensor.expand_shape %345 [[0, 1, 2], [3]] output_shape [1, 1, 1, 2] : tensor<1x2xi32> into tensor<1x1x1x2xi32>
    %346 = tensor.empty() : tensor<1x1x1x2xi8>
    %347 = linalg.generic {indexing_maps = [#map1, #map, #map, #map1], iterator_types = ["parallel", "parallel", "parallel", "parallel"]} ins(%expanded_280, %cst_0, %cst : tensor<1x1x1x2xi32>, tensor<2xi32>, tensor<2xi8>) outs(%346 : tensor<1x1x1x2xi8>) {
    ^bb0(%in: i32, %in_282: i32, %in_283: i8, %out: i8):
      %348 = tosa.apply_scale %in, %in_282, %in_283 {rounding_mode = DOUBLE_ROUND} : (i32, i32, i8) -> i32
      %349 = arith.maxsi %348, %c-128_i32 : i32
      %350 = arith.minsi %349, %c127_i32 : i32
      %351 = arith.trunci %350 : i32 to i8
      linalg.yield %351 : i8
    } -> tensor<1x1x1x2xi8>
    %collapsed_281 = tensor.collapse_shape %347 [[0, 1, 2], [3]] : tensor<1x1x1x2xi8> into tensor<1x2xi8>
    util.return %collapsed_281 : tensor<1x2xi8>
  }
}
